node {
  name: "Const"
  op: "Const"
  attr {
    key: "dtype"
    value {
      type: DT_INT32
    }
  }
  attr {
    key: "value"
    value {
      tensor {
        dtype: DT_INT32
        tensor_shape {
          dim {
            size: 2
          }
        }
        tensor_content: "\000\001\000\000\000\001\000\000"
      }
    }
  }
}
node {
  name: "ToFloat"
  op: "Cast"
  input: "Const"
  attr {
    key: "DstT"
    value {
      type: DT_FLOAT
    }
  }
  attr {
    key: "SrcT"
    value {
      type: DT_INT32
    }
  }
  attr {
    key: "Truncate"
    value {
      b: false
    }
  }
}
node {
  name: "Const_1"
  op: "Const"
  attr {
    key: "dtype"
    value {
      type: DT_INT32
    }
  }
  attr {
    key: "value"
    value {
      tensor {
        dtype: DT_INT32
        tensor_shape {
          dim {
            size: 2
          }
        }
        tensor_content: "\020\000\000\000\020\000\000\000"
      }
    }
  }
}
node {
  name: "ToFloat_1"
  op: "Cast"
  input: "Const_1"
  attr {
    key: "DstT"
    value {
      type: DT_FLOAT
    }
  }
  attr {
    key: "SrcT"
    value {
      type: DT_INT32
    }
  }
  attr {
    key: "Truncate"
    value {
      b: false
    }
  }
}
node {
  name: "Const_2"
  op: "Const"
  attr {
    key: "dtype"
    value {
      type: DT_INT32
    }
  }
  attr {
    key: "value"
    value {
      tensor {
        dtype: DT_INT32
        tensor_shape {
          dim {
            size: 2
          }
        }
        tensor_content: "\000\000\000\000\000\000\000\000"
      }
    }
  }
}
node {
  name: "ToFloat_2"
  op: "Cast"
  input: "Const_2"
  attr {
    key: "DstT"
    value {
      type: DT_FLOAT
    }
  }
  attr {
    key: "SrcT"
    value {
      type: DT_INT32
    }
  }
  attr {
    key: "Truncate"
    value {
      b: false
    }
  }
}
node {
  name: "image_tensor"
  op: "Placeholder"
  attr {
    key: "dtype"
    value {
      type: DT_UINT8
    }
  }
  attr {
    key: "shape"
    value {
      shape {
        dim {
          size: -1
        }
        dim {
          size: -1
        }
        dim {
          size: -1
        }
        dim {
          size: 3
        }
      }
    }
  }
}
node {
  name: "ToFloat_3"
  op: "Cast"
  input: "image_tensor"
  attr {
    key: "DstT"
    value {
      type: DT_FLOAT
    }
  }
  attr {
    key: "SrcT"
    value {
      type: DT_UINT8
    }
  }
  attr {
    key: "Truncate"
    value {
      b: false
    }
  }
}
node {
  name: "Preprocessor/map/Shape"
  op: "Shape"
  input: "ToFloat_3"
  attr {
    key: "T"
    value {
      type: DT_FLOAT
    }
  }
  attr {
    key: "out_type"
    value {
      type: DT_INT32
    }
  }
}
node {
  name: "Preprocessor/map/strided_slice/stack"
  op: "Const"
  attr {
    key: "dtype"
    value {
      type: DT_INT32
    }
  }
  attr {
    key: "value"
    value {
      tensor {
        dtype: DT_INT32
        tensor_shape {
          dim {
            size: 1
          }
        }
        int_val: 0
      }
    }
  }
}
node {
  name: "Preprocessor/map/strided_slice/stack_1"
  op: "Const"
  attr {
    key: "dtype"
    value {
      type: DT_INT32
    }
  }
  attr {
    key: "value"
    value {
      tensor {
        dtype: DT_INT32
        tensor_shape {
          dim {
            size: 1
          }
        }
        int_val: 1
      }
    }
  }
}
node {
  name: "Preprocessor/map/strided_slice/stack_2"
  op: "Const"
  attr {
    key: "dtype"
    value {
      type: DT_INT32
    }
  }
  attr {
    key: "value"
    value {
      tensor {
        dtype: DT_INT32
        tensor_shape {
          dim {
            size: 1
          }
        }
        int_val: 1
      }
    }
  }
}
node {
  name: "Preprocessor/map/strided_slice"
  op: "StridedSlice"
  input: "Preprocessor/map/Shape"
  input: "Preprocessor/map/strided_slice/stack"
  input: "Preprocessor/map/strided_slice/stack_1"
  input: "Preprocessor/map/strided_slice/stack_2"
  attr {
    key: "Index"
    value {
      type: DT_INT32
    }
  }
  attr {
    key: "T"
    value {
      type: DT_INT32
    }
  }
  attr {
    key: "begin_mask"
    value {
      i: 0
    }
  }
  attr {
    key: "ellipsis_mask"
    value {
      i: 0
    }
  }
  attr {
    key: "end_mask"
    value {
      i: 0
    }
  }
  attr {
    key: "new_axis_mask"
    value {
      i: 0
    }
  }
  attr {
    key: "shrink_axis_mask"
    value {
      i: 1
    }
  }
}
node {
  name: "Preprocessor/map/TensorArray"
  op: "TensorArrayV3"
  input: "Preprocessor/map/strided_slice"
  attr {
    key: "clear_after_read"
    value {
      b: true
    }
  }
  attr {
    key: "dtype"
    value {
      type: DT_FLOAT
    }
  }
  attr {
    key: "dynamic_size"
    value {
      b: false
    }
  }
  attr {
    key: "element_shape"
    value {
      shape {
        unknown_rank: true
      }
    }
  }
  attr {
    key: "identical_element_shapes"
    value {
      b: true
    }
  }
  attr {
    key: "tensor_array_name"
    value {
      s: ""
    }
  }
}
node {
  name: "Preprocessor/map/TensorArrayUnstack/Shape"
  op: "Shape"
  input: "ToFloat_3"
  attr {
    key: "T"
    value {
      type: DT_FLOAT
    }
  }
  attr {
    key: "out_type"
    value {
      type: DT_INT32
    }
  }
}
node {
  name: "Preprocessor/map/TensorArrayUnstack/strided_slice/stack"
  op: "Const"
  attr {
    key: "dtype"
    value {
      type: DT_INT32
    }
  }
  attr {
    key: "value"
    value {
      tensor {
        dtype: DT_INT32
        tensor_shape {
          dim {
            size: 1
          }
        }
        int_val: 0
      }
    }
  }
}
node {
  name: "Preprocessor/map/TensorArrayUnstack/strided_slice/stack_1"
  op: "Const"
  attr {
    key: "dtype"
    value {
      type: DT_INT32
    }
  }
  attr {
    key: "value"
    value {
      tensor {
        dtype: DT_INT32
        tensor_shape {
          dim {
            size: 1
          }
        }
        int_val: 1
      }
    }
  }
}
node {
  name: "Preprocessor/map/TensorArrayUnstack/strided_slice/stack_2"
  op: "Const"
  attr {
    key: "dtype"
    value {
      type: DT_INT32
    }
  }
  attr {
    key: "value"
    value {
      tensor {
        dtype: DT_INT32
        tensor_shape {
          dim {
            size: 1
          }
        }
        int_val: 1
      }
    }
  }
}
node {
  name: "Preprocessor/map/TensorArrayUnstack/strided_slice"
  op: "StridedSlice"
  input: "Preprocessor/map/TensorArrayUnstack/Shape"
  input: "Preprocessor/map/TensorArrayUnstack/strided_slice/stack"
  input: "Preprocessor/map/TensorArrayUnstack/strided_slice/stack_1"
  input: "Preprocessor/map/TensorArrayUnstack/strided_slice/stack_2"
  attr {
    key: "Index"
    value {
      type: DT_INT32
    }
  }
  attr {
    key: "T"
    value {
      type: DT_INT32
    }
  }
  attr {
    key: "begin_mask"
    value {
      i: 0
    }
  }
  attr {
    key: "ellipsis_mask"
    value {
      i: 0
    }
  }
  attr {
    key: "end_mask"
    value {
      i: 0
    }
  }
  attr {
    key: "new_axis_mask"
    value {
      i: 0
    }
  }
  attr {
    key: "shrink_axis_mask"
    value {
      i: 1
    }
  }
}
node {
  name: "Preprocessor/map/TensorArrayUnstack/range/start"
  op: "Const"
  attr {
    key: "dtype"
    value {
      type: DT_INT32
    }
  }
  attr {
    key: "value"
    value {
      tensor {
        dtype: DT_INT32
        tensor_shape {
        }
        int_val: 0
      }
    }
  }
}
node {
  name: "Preprocessor/map/TensorArrayUnstack/range/delta"
  op: "Const"
  attr {
    key: "dtype"
    value {
      type: DT_INT32
    }
  }
  attr {
    key: "value"
    value {
      tensor {
        dtype: DT_INT32
        tensor_shape {
        }
        int_val: 1
      }
    }
  }
}
node {
  name: "Preprocessor/map/TensorArrayUnstack/range"
  op: "Range"
  input: "Preprocessor/map/TensorArrayUnstack/range/start"
  input: "Preprocessor/map/TensorArrayUnstack/strided_slice"
  input: "Preprocessor/map/TensorArrayUnstack/range/delta"
  attr {
    key: "Tidx"
    value {
      type: DT_INT32
    }
  }
}
node {
  name: "Preprocessor/map/TensorArrayUnstack/TensorArrayScatter/TensorArrayScatterV3"
  op: "TensorArrayScatterV3"
  input: "Preprocessor/map/TensorArray"
  input: "Preprocessor/map/TensorArrayUnstack/range"
  input: "ToFloat_3"
  input: "Preprocessor/map/TensorArray:1"
  attr {
    key: "T"
    value {
      type: DT_FLOAT
    }
  }
  attr {
    key: "_class"
    value {
      list {
        s: "loc:@ToFloat_3"
      }
    }
  }
}
node {
  name: "Preprocessor/map/Const"
  op: "Const"
  attr {
    key: "dtype"
    value {
      type: DT_INT32
    }
  }
  attr {
    key: "value"
    value {
      tensor {
        dtype: DT_INT32
        tensor_shape {
        }
        int_val: 0
      }
    }
  }
}
node {
  name: "Preprocessor/map/TensorArray_1"
  op: "TensorArrayV3"
  input: "Preprocessor/map/strided_slice"
  attr {
    key: "clear_after_read"
    value {
      b: true
    }
  }
  attr {
    key: "dtype"
    value {
      type: DT_FLOAT
    }
  }
  attr {
    key: "dynamic_size"
    value {
      b: false
    }
  }
  attr {
    key: "element_shape"
    value {
      shape {
        unknown_rank: true
      }
    }
  }
  attr {
    key: "identical_element_shapes"
    value {
      b: true
    }
  }
  attr {
    key: "tensor_array_name"
    value {
      s: ""
    }
  }
}
node {
  name: "Preprocessor/map/TensorArray_2"
  op: "TensorArrayV3"
  input: "Preprocessor/map/strided_slice"
  attr {
    key: "clear_after_read"
    value {
      b: true
    }
  }
  attr {
    key: "dtype"
    value {
      type: DT_INT32
    }
  }
  attr {
    key: "dynamic_size"
    value {
      b: false
    }
  }
  attr {
    key: "element_shape"
    value {
      shape {
        unknown_rank: true
      }
    }
  }
  attr {
    key: "identical_element_shapes"
    value {
      b: true
    }
  }
  attr {
    key: "tensor_array_name"
    value {
      s: ""
    }
  }
}
node {
  name: "Preprocessor/map/while/iteration_counter"
  op: "Const"
  attr {
    key: "dtype"
    value {
      type: DT_INT32
    }
  }
  attr {
    key: "value"
    value {
      tensor {
        dtype: DT_INT32
        tensor_shape {
        }
        int_val: 0
      }
    }
  }
}
node {
  name: "Preprocessor/map/while/Enter"
  op: "Enter"
  input: "Preprocessor/map/while/iteration_counter"
  attr {
    key: "T"
    value {
      type: DT_INT32
    }
  }
  attr {
    key: "frame_name"
    value {
      s: "Preprocessor/map/while/while_context"
    }
  }
  attr {
    key: "is_constant"
    value {
      b: false
    }
  }
  attr {
    key: "parallel_iterations"
    value {
      i: 16
    }
  }
}
node {
  name: "Preprocessor/map/while/Enter_1"
  op: "Enter"
  input: "Preprocessor/map/Const"
  attr {
    key: "T"
    value {
      type: DT_INT32
    }
  }
  attr {
    key: "frame_name"
    value {
      s: "Preprocessor/map/while/while_context"
    }
  }
  attr {
    key: "is_constant"
    value {
      b: false
    }
  }
  attr {
    key: "parallel_iterations"
    value {
      i: 16
    }
  }
}
node {
  name: "Preprocessor/map/while/Enter_2"
  op: "Enter"
  input: "Preprocessor/map/TensorArray_1:1"
  attr {
    key: "T"
    value {
      type: DT_FLOAT
    }
  }
  attr {
    key: "frame_name"
    value {
      s: "Preprocessor/map/while/while_context"
    }
  }
  attr {
    key: "is_constant"
    value {
      b: false
    }
  }
  attr {
    key: "parallel_iterations"
    value {
      i: 16
    }
  }
}
node {
  name: "Preprocessor/map/while/Enter_3"
  op: "Enter"
  input: "Preprocessor/map/TensorArray_2:1"
  attr {
    key: "T"
    value {
      type: DT_FLOAT
    }
  }
  attr {
    key: "frame_name"
    value {
      s: "Preprocessor/map/while/while_context"
    }
  }
  attr {
    key: "is_constant"
    value {
      b: false
    }
  }
  attr {
    key: "parallel_iterations"
    value {
      i: 16
    }
  }
}
node {
  name: "Preprocessor/map/while/Merge"
  op: "Merge"
  input: "Preprocessor/map/while/Enter"
  input: "Preprocessor/map/while/NextIteration"
  attr {
    key: "N"
    value {
      i: 2
    }
  }
  attr {
    key: "T"
    value {
      type: DT_INT32
    }
  }
}
node {
  name: "Preprocessor/map/while/Merge_1"
  op: "Merge"
  input: "Preprocessor/map/while/Enter_1"
  input: "Preprocessor/map/while/NextIteration_1"
  attr {
    key: "N"
    value {
      i: 2
    }
  }
  attr {
    key: "T"
    value {
      type: DT_INT32
    }
  }
}
node {
  name: "Preprocessor/map/while/Merge_2"
  op: "Merge"
  input: "Preprocessor/map/while/Enter_2"
  input: "Preprocessor/map/while/NextIteration_2"
  attr {
    key: "N"
    value {
      i: 2
    }
  }
  attr {
    key: "T"
    value {
      type: DT_FLOAT
    }
  }
}
node {
  name: "Preprocessor/map/while/Merge_3"
  op: "Merge"
  input: "Preprocessor/map/while/Enter_3"
  input: "Preprocessor/map/while/NextIteration_3"
  attr {
    key: "N"
    value {
      i: 2
    }
  }
  attr {
    key: "T"
    value {
      type: DT_FLOAT
    }
  }
}
node {
  name: "Preprocessor/map/while/Less"
  op: "Less"
  input: "Preprocessor/map/while/Merge"
  input: "Preprocessor/map/while/Less/Enter"
  attr {
    key: "T"
    value {
      type: DT_INT32
    }
  }
}
node {
  name: "Preprocessor/map/while/Less/Enter"
  op: "Enter"
  input: "Preprocessor/map/strided_slice"
  attr {
    key: "T"
    value {
      type: DT_INT32
    }
  }
  attr {
    key: "frame_name"
    value {
      s: "Preprocessor/map/while/while_context"
    }
  }
  attr {
    key: "is_constant"
    value {
      b: true
    }
  }
  attr {
    key: "parallel_iterations"
    value {
      i: 16
    }
  }
}
node {
  name: "Preprocessor/map/while/Less_1"
  op: "Less"
  input: "Preprocessor/map/while/Merge_1"
  input: "Preprocessor/map/while/Less/Enter"
  attr {
    key: "T"
    value {
      type: DT_INT32
    }
  }
}
node {
  name: "Preprocessor/map/while/LogicalAnd"
  op: "LogicalAnd"
  input: "Preprocessor/map/while/Less"
  input: "Preprocessor/map/while/Less_1"
}
node {
  name: "Preprocessor/map/while/LoopCond"
  op: "LoopCond"
  input: "Preprocessor/map/while/LogicalAnd"
}
node {
  name: "Preprocessor/map/while/Switch"
  op: "Switch"
  input: "Preprocessor/map/while/Merge"
  input: "Preprocessor/map/while/LoopCond"
  attr {
    key: "T"
    value {
      type: DT_INT32
    }
  }
  attr {
    key: "_class"
    value {
      list {
        s: "loc:@Preprocessor/map/while/Merge"
      }
    }
  }
}
node {
  name: "Preprocessor/map/while/Switch_1"
  op: "Switch"
  input: "Preprocessor/map/while/Merge_1"
  input: "Preprocessor/map/while/LoopCond"
  attr {
    key: "T"
    value {
      type: DT_INT32
    }
  }
  attr {
    key: "_class"
    value {
      list {
        s: "loc:@Preprocessor/map/while/Merge_1"
      }
    }
  }
}
node {
  name: "Preprocessor/map/while/Switch_2"
  op: "Switch"
  input: "Preprocessor/map/while/Merge_2"
  input: "Preprocessor/map/while/LoopCond"
  attr {
    key: "T"
    value {
      type: DT_FLOAT
    }
  }
  attr {
    key: "_class"
    value {
      list {
        s: "loc:@Preprocessor/map/while/Merge_2"
      }
    }
  }
}
node {
  name: "Preprocessor/map/while/Switch_3"
  op: "Switch"
  input: "Preprocessor/map/while/Merge_3"
  input: "Preprocessor/map/while/LoopCond"
  attr {
    key: "T"
    value {
      type: DT_FLOAT
    }
  }
  attr {
    key: "_class"
    value {
      list {
        s: "loc:@Preprocessor/map/while/Merge_3"
      }
    }
  }
}
node {
  name: "Preprocessor/map/while/Identity"
  op: "Identity"
  input: "Preprocessor/map/while/Switch:1"
  attr {
    key: "T"
    value {
      type: DT_INT32
    }
  }
}
node {
  name: "Preprocessor/map/while/Identity_1"
  op: "Identity"
  input: "Preprocessor/map/while/Switch_1:1"
  attr {
    key: "T"
    value {
      type: DT_INT32
    }
  }
}
node {
  name: "Preprocessor/map/while/Identity_2"
  op: "Identity"
  input: "Preprocessor/map/while/Switch_2:1"
  attr {
    key: "T"
    value {
      type: DT_FLOAT
    }
  }
}
node {
  name: "Preprocessor/map/while/Identity_3"
  op: "Identity"
  input: "Preprocessor/map/while/Switch_3:1"
  attr {
    key: "T"
    value {
      type: DT_FLOAT
    }
  }
}
node {
  name: "Preprocessor/map/while/add/y"
  op: "Const"
  input: "^Preprocessor/map/while/Identity"
  attr {
    key: "dtype"
    value {
      type: DT_INT32
    }
  }
  attr {
    key: "value"
    value {
      tensor {
        dtype: DT_INT32
        tensor_shape {
        }
        int_val: 1
      }
    }
  }
}
node {
  name: "Preprocessor/map/while/add"
  op: "Add"
  input: "Preprocessor/map/while/Identity"
  input: "Preprocessor/map/while/add/y"
  attr {
    key: "T"
    value {
      type: DT_INT32
    }
  }
}
node {
  name: "Preprocessor/map/while/TensorArrayReadV3"
  op: "TensorArrayReadV3"
  input: "Preprocessor/map/while/TensorArrayReadV3/Enter"
  input: "Preprocessor/map/while/Identity_1"
  input: "Preprocessor/map/while/TensorArrayReadV3/Enter_1"
  attr {
    key: "dtype"
    value {
      type: DT_FLOAT
    }
  }
}
node {
  name: "Preprocessor/map/while/TensorArrayReadV3/Enter"
  op: "Enter"
  input: "Preprocessor/map/TensorArray"
  attr {
    key: "T"
    value {
      type: DT_RESOURCE
    }
  }
  attr {
    key: "frame_name"
    value {
      s: "Preprocessor/map/while/while_context"
    }
  }
  attr {
    key: "is_constant"
    value {
      b: true
    }
  }
  attr {
    key: "parallel_iterations"
    value {
      i: 16
    }
  }
}
node {
  name: "Preprocessor/map/while/TensorArrayReadV3/Enter_1"
  op: "Enter"
  input: "Preprocessor/map/TensorArrayUnstack/TensorArrayScatter/TensorArrayScatterV3"
  attr {
    key: "T"
    value {
      type: DT_FLOAT
    }
  }
  attr {
    key: "frame_name"
    value {
      s: "Preprocessor/map/while/while_context"
    }
  }
  attr {
    key: "is_constant"
    value {
      b: true
    }
  }
  attr {
    key: "parallel_iterations"
    value {
      i: 16
    }
  }
}
node {
  name: "Preprocessor/map/while/ResizeToRange/Shape"
  op: "Shape"
  input: "Preprocessor/map/while/TensorArrayReadV3"
  attr {
    key: "T"
    value {
      type: DT_FLOAT
    }
  }
  attr {
    key: "out_type"
    value {
      type: DT_INT32
    }
  }
}
node {
  name: "Preprocessor/map/while/ResizeToRange/strided_slice/stack"
  op: "Const"
  input: "^Preprocessor/map/while/Identity"
  attr {
    key: "dtype"
    value {
      type: DT_INT32
    }
  }
  attr {
    key: "value"
    value {
      tensor {
        dtype: DT_INT32
        tensor_shape {
          dim {
            size: 1
          }
        }
        int_val: 0
      }
    }
  }
}
node {
  name: "Preprocessor/map/while/ResizeToRange/strided_slice/stack_1"
  op: "Const"
  input: "^Preprocessor/map/while/Identity"
  attr {
    key: "dtype"
    value {
      type: DT_INT32
    }
  }
  attr {
    key: "value"
    value {
      tensor {
        dtype: DT_INT32
        tensor_shape {
          dim {
            size: 1
          }
        }
        int_val: 1
      }
    }
  }
}
node {
  name: "Preprocessor/map/while/ResizeToRange/strided_slice/stack_2"
  op: "Const"
  input: "^Preprocessor/map/while/Identity"
  attr {
    key: "dtype"
    value {
      type: DT_INT32
    }
  }
  attr {
    key: "value"
    value {
      tensor {
        dtype: DT_INT32
        tensor_shape {
          dim {
            size: 1
          }
        }
        int_val: 1
      }
    }
  }
}
node {
  name: "Preprocessor/map/while/ResizeToRange/strided_slice"
  op: "StridedSlice"
  input: "Preprocessor/map/while/ResizeToRange/Shape"
  input: "Preprocessor/map/while/ResizeToRange/strided_slice/stack"
  input: "Preprocessor/map/while/ResizeToRange/strided_slice/stack_1"
  input: "Preprocessor/map/while/ResizeToRange/strided_slice/stack_2"
  attr {
    key: "Index"
    value {
      type: DT_INT32
    }
  }
  attr {
    key: "T"
    value {
      type: DT_INT32
    }
  }
  attr {
    key: "begin_mask"
    value {
      i: 0
    }
  }
  attr {
    key: "ellipsis_mask"
    value {
      i: 0
    }
  }
  attr {
    key: "end_mask"
    value {
      i: 0
    }
  }
  attr {
    key: "new_axis_mask"
    value {
      i: 0
    }
  }
  attr {
    key: "shrink_axis_mask"
    value {
      i: 1
    }
  }
}
node {
  name: "Preprocessor/map/while/ResizeToRange/ToFloat"
  op: "Cast"
  input: "Preprocessor/map/while/ResizeToRange/strided_slice"
  attr {
    key: "DstT"
    value {
      type: DT_FLOAT
    }
  }
  attr {
    key: "SrcT"
    value {
      type: DT_INT32
    }
  }
  attr {
    key: "Truncate"
    value {
      b: false
    }
  }
}
node {
  name: "Preprocessor/map/while/ResizeToRange/strided_slice_1/stack"
  op: "Const"
  input: "^Preprocessor/map/while/Identity"
  attr {
    key: "dtype"
    value {
      type: DT_INT32
    }
  }
  attr {
    key: "value"
    value {
      tensor {
        dtype: DT_INT32
        tensor_shape {
          dim {
            size: 1
          }
        }
        int_val: 1
      }
    }
  }
}
node {
  name: "Preprocessor/map/while/ResizeToRange/strided_slice_1/stack_1"
  op: "Const"
  input: "^Preprocessor/map/while/Identity"
  attr {
    key: "dtype"
    value {
      type: DT_INT32
    }
  }
  attr {
    key: "value"
    value {
      tensor {
        dtype: DT_INT32
        tensor_shape {
          dim {
            size: 1
          }
        }
        int_val: 2
      }
    }
  }
}
node {
  name: "Preprocessor/map/while/ResizeToRange/strided_slice_1/stack_2"
  op: "Const"
  input: "^Preprocessor/map/while/Identity"
  attr {
    key: "dtype"
    value {
      type: DT_INT32
    }
  }
  attr {
    key: "value"
    value {
      tensor {
        dtype: DT_INT32
        tensor_shape {
          dim {
            size: 1
          }
        }
        int_val: 1
      }
    }
  }
}
node {
  name: "Preprocessor/map/while/ResizeToRange/strided_slice_1"
  op: "StridedSlice"
  input: "Preprocessor/map/while/ResizeToRange/Shape"
  input: "Preprocessor/map/while/ResizeToRange/strided_slice_1/stack"
  input: "Preprocessor/map/while/ResizeToRange/strided_slice_1/stack_1"
  input: "Preprocessor/map/while/ResizeToRange/strided_slice_1/stack_2"
  attr {
    key: "Index"
    value {
      type: DT_INT32
    }
  }
  attr {
    key: "T"
    value {
      type: DT_INT32
    }
  }
  attr {
    key: "begin_mask"
    value {
      i: 0
    }
  }
  attr {
    key: "ellipsis_mask"
    value {
      i: 0
    }
  }
  attr {
    key: "end_mask"
    value {
      i: 0
    }
  }
  attr {
    key: "new_axis_mask"
    value {
      i: 0
    }
  }
  attr {
    key: "shrink_axis_mask"
    value {
      i: 1
    }
  }
}
node {
  name: "Preprocessor/map/while/ResizeToRange/ToFloat_1"
  op: "Cast"
  input: "Preprocessor/map/while/ResizeToRange/strided_slice_1"
  attr {
    key: "DstT"
    value {
      type: DT_FLOAT
    }
  }
  attr {
    key: "SrcT"
    value {
      type: DT_INT32
    }
  }
  attr {
    key: "Truncate"
    value {
      b: false
    }
  }
}
node {
  name: "Preprocessor/map/while/ResizeToRange/strided_slice_2/stack"
  op: "Const"
  input: "^Preprocessor/map/while/Identity"
  attr {
    key: "dtype"
    value {
      type: DT_INT32
    }
  }
  attr {
    key: "value"
    value {
      tensor {
        dtype: DT_INT32
        tensor_shape {
          dim {
            size: 1
          }
        }
        int_val: 2
      }
    }
  }
}
node {
  name: "Preprocessor/map/while/ResizeToRange/strided_slice_2/stack_1"
  op: "Const"
  input: "^Preprocessor/map/while/Identity"
  attr {
    key: "dtype"
    value {
      type: DT_INT32
    }
  }
  attr {
    key: "value"
    value {
      tensor {
        dtype: DT_INT32
        tensor_shape {
          dim {
            size: 1
          }
        }
        int_val: 3
      }
    }
  }
}
node {
  name: "Preprocessor/map/while/ResizeToRange/strided_slice_2/stack_2"
  op: "Const"
  input: "^Preprocessor/map/while/Identity"
  attr {
    key: "dtype"
    value {
      type: DT_INT32
    }
  }
  attr {
    key: "value"
    value {
      tensor {
        dtype: DT_INT32
        tensor_shape {
          dim {
            size: 1
          }
        }
        int_val: 1
      }
    }
  }
}
node {
  name: "Preprocessor/map/while/ResizeToRange/strided_slice_2"
  op: "StridedSlice"
  input: "Preprocessor/map/while/ResizeToRange/Shape"
  input: "Preprocessor/map/while/ResizeToRange/strided_slice_2/stack"
  input: "Preprocessor/map/while/ResizeToRange/strided_slice_2/stack_1"
  input: "Preprocessor/map/while/ResizeToRange/strided_slice_2/stack_2"
  attr {
    key: "Index"
    value {
      type: DT_INT32
    }
  }
  attr {
    key: "T"
    value {
      type: DT_INT32
    }
  }
  attr {
    key: "begin_mask"
    value {
      i: 0
    }
  }
  attr {
    key: "ellipsis_mask"
    value {
      i: 0
    }
  }
  attr {
    key: "end_mask"
    value {
      i: 0
    }
  }
  attr {
    key: "new_axis_mask"
    value {
      i: 0
    }
  }
  attr {
    key: "shrink_axis_mask"
    value {
      i: 1
    }
  }
}
node {
  name: "Preprocessor/map/while/ResizeToRange/Minimum"
  op: "Minimum"
  input: "Preprocessor/map/while/ResizeToRange/ToFloat"
  input: "Preprocessor/map/while/ResizeToRange/ToFloat_1"
  attr {
    key: "T"
    value {
      type: DT_FLOAT
    }
  }
}
node {
  name: "Preprocessor/map/while/ResizeToRange/Const"
  op: "Const"
  input: "^Preprocessor/map/while/Identity"
  attr {
    key: "dtype"
    value {
      type: DT_FLOAT
    }
  }
  attr {
    key: "value"
    value {
      tensor {
        dtype: DT_FLOAT
        tensor_shape {
        }
        float_val: 600.0
      }
    }
  }
}
node {
  name: "Preprocessor/map/while/ResizeToRange/truediv"
  op: "RealDiv"
  input: "Preprocessor/map/while/ResizeToRange/Const"
  input: "Preprocessor/map/while/ResizeToRange/Minimum"
  attr {
    key: "T"
    value {
      type: DT_FLOAT
    }
  }
}
node {
  name: "Preprocessor/map/while/ResizeToRange/mul"
  op: "Mul"
  input: "Preprocessor/map/while/ResizeToRange/ToFloat"
  input: "Preprocessor/map/while/ResizeToRange/truediv"
  attr {
    key: "T"
    value {
      type: DT_FLOAT
    }
  }
}
node {
  name: "Preprocessor/map/while/ResizeToRange/Round"
  op: "Round"
  input: "Preprocessor/map/while/ResizeToRange/mul"
  attr {
    key: "T"
    value {
      type: DT_FLOAT
    }
  }
}
node {
  name: "Preprocessor/map/while/ResizeToRange/ToInt32"
  op: "Cast"
  input: "Preprocessor/map/while/ResizeToRange/Round"
  attr {
    key: "DstT"
    value {
      type: DT_INT32
    }
  }
  attr {
    key: "SrcT"
    value {
      type: DT_FLOAT
    }
  }
  attr {
    key: "Truncate"
    value {
      b: false
    }
  }
}
node {
  name: "Preprocessor/map/while/ResizeToRange/mul_1"
  op: "Mul"
  input: "Preprocessor/map/while/ResizeToRange/ToFloat_1"
  input: "Preprocessor/map/while/ResizeToRange/truediv"
  attr {
    key: "T"
    value {
      type: DT_FLOAT
    }
  }
}
node {
  name: "Preprocessor/map/while/ResizeToRange/Round_1"
  op: "Round"
  input: "Preprocessor/map/while/ResizeToRange/mul_1"
  attr {
    key: "T"
    value {
      type: DT_FLOAT
    }
  }
}
node {
  name: "Preprocessor/map/while/ResizeToRange/ToInt32_1"
  op: "Cast"
  input: "Preprocessor/map/while/ResizeToRange/Round_1"
  attr {
    key: "DstT"
    value {
      type: DT_INT32
    }
  }
  attr {
    key: "SrcT"
    value {
      type: DT_FLOAT
    }
  }
  attr {
    key: "Truncate"
    value {
      b: false
    }
  }
}
node {
  name: "Preprocessor/map/while/ResizeToRange/stack"
  op: "Pack"
  input: "Preprocessor/map/while/ResizeToRange/ToInt32"
  input: "Preprocessor/map/while/ResizeToRange/ToInt32_1"
  attr {
    key: "N"
    value {
      i: 2
    }
  }
  attr {
    key: "T"
    value {
      type: DT_INT32
    }
  }
  attr {
    key: "axis"
    value {
      i: 0
    }
  }
}
node {
  name: "Preprocessor/map/while/ResizeToRange/Maximum"
  op: "Maximum"
  input: "Preprocessor/map/while/ResizeToRange/ToFloat"
  input: "Preprocessor/map/while/ResizeToRange/ToFloat_1"
  attr {
    key: "T"
    value {
      type: DT_FLOAT
    }
  }
}
node {
  name: "Preprocessor/map/while/ResizeToRange/Const_1"
  op: "Const"
  input: "^Preprocessor/map/while/Identity"
  attr {
    key: "dtype"
    value {
      type: DT_FLOAT
    }
  }
  attr {
    key: "value"
    value {
      tensor {
        dtype: DT_FLOAT
        tensor_shape {
        }
        float_val: 1024.0
      }
    }
  }
}
node {
  name: "Preprocessor/map/while/ResizeToRange/truediv_1"
  op: "RealDiv"
  input: "Preprocessor/map/while/ResizeToRange/Const_1"
  input: "Preprocessor/map/while/ResizeToRange/Maximum"
  attr {
    key: "T"
    value {
      type: DT_FLOAT
    }
  }
}
node {
  name: "Preprocessor/map/while/ResizeToRange/mul_2"
  op: "Mul"
  input: "Preprocessor/map/while/ResizeToRange/ToFloat"
  input: "Preprocessor/map/while/ResizeToRange/truediv_1"
  attr {
    key: "T"
    value {
      type: DT_FLOAT
    }
  }
}
node {
  name: "Preprocessor/map/while/ResizeToRange/Round_2"
  op: "Round"
  input: "Preprocessor/map/while/ResizeToRange/mul_2"
  attr {
    key: "T"
    value {
      type: DT_FLOAT
    }
  }
}
node {
  name: "Preprocessor/map/while/ResizeToRange/ToInt32_2"
  op: "Cast"
  input: "Preprocessor/map/while/ResizeToRange/Round_2"
  attr {
    key: "DstT"
    value {
      type: DT_INT32
    }
  }
  attr {
    key: "SrcT"
    value {
      type: DT_FLOAT
    }
  }
  attr {
    key: "Truncate"
    value {
      b: false
    }
  }
}
node {
  name: "Preprocessor/map/while/ResizeToRange/mul_3"
  op: "Mul"
  input: "Preprocessor/map/while/ResizeToRange/ToFloat_1"
  input: "Preprocessor/map/while/ResizeToRange/truediv_1"
  attr {
    key: "T"
    value {
      type: DT_FLOAT
    }
  }
}
node {
  name: "Preprocessor/map/while/ResizeToRange/Round_3"
  op: "Round"
  input: "Preprocessor/map/while/ResizeToRange/mul_3"
  attr {
    key: "T"
    value {
      type: DT_FLOAT
    }
  }
}
node {
  name: "Preprocessor/map/while/ResizeToRange/ToInt32_3"
  op: "Cast"
  input: "Preprocessor/map/while/ResizeToRange/Round_3"
  attr {
    key: "DstT"
    value {
      type: DT_INT32
    }
  }
  attr {
    key: "SrcT"
    value {
      type: DT_FLOAT
    }
  }
  attr {
    key: "Truncate"
    value {
      b: false
    }
  }
}
node {
  name: "Preprocessor/map/while/ResizeToRange/stack_1"
  op: "Pack"
  input: "Preprocessor/map/while/ResizeToRange/ToInt32_2"
  input: "Preprocessor/map/while/ResizeToRange/ToInt32_3"
  attr {
    key: "N"
    value {
      i: 2
    }
  }
  attr {
    key: "T"
    value {
      type: DT_INT32
    }
  }
  attr {
    key: "axis"
    value {
      i: 0
    }
  }
}
node {
  name: "Preprocessor/map/while/ResizeToRange/Const_2"
  op: "Const"
  input: "^Preprocessor/map/while/Identity"
  attr {
    key: "dtype"
    value {
      type: DT_INT32
    }
  }
  attr {
    key: "value"
    value {
      tensor {
        dtype: DT_INT32
        tensor_shape {
          dim {
            size: 1
          }
        }
        int_val: 0
      }
    }
  }
}
node {
  name: "Preprocessor/map/while/ResizeToRange/Max"
  op: "Max"
  input: "Preprocessor/map/while/ResizeToRange/stack"
  input: "Preprocessor/map/while/ResizeToRange/Const_2"
  attr {
    key: "T"
    value {
      type: DT_INT32
    }
  }
  attr {
    key: "Tidx"
    value {
      type: DT_INT32
    }
  }
  attr {
    key: "keep_dims"
    value {
      b: false
    }
  }
}
node {
  name: "Preprocessor/map/while/ResizeToRange/ToFloat_2"
  op: "Cast"
  input: "Preprocessor/map/while/ResizeToRange/Max"
  attr {
    key: "DstT"
    value {
      type: DT_FLOAT
    }
  }
  attr {
    key: "SrcT"
    value {
      type: DT_INT32
    }
  }
  attr {
    key: "Truncate"
    value {
      b: false
    }
  }
}
node {
  name: "Preprocessor/map/while/ResizeToRange/Greater"
  op: "Greater"
  input: "Preprocessor/map/while/ResizeToRange/ToFloat_2"
  input: "Preprocessor/map/while/ResizeToRange/Const_1"
  attr {
    key: "T"
    value {
      type: DT_FLOAT
    }
  }
}
node {
  name: "Preprocessor/map/while/ResizeToRange/cond/Switch"
  op: "Switch"
  input: "Preprocessor/map/while/ResizeToRange/Greater"
  input: "Preprocessor/map/while/ResizeToRange/Greater"
  attr {
    key: "T"
    value {
      type: DT_BOOL
    }
  }
}
node {
  name: "Preprocessor/map/while/ResizeToRange/cond/switch_t"
  op: "Identity"
  input: "Preprocessor/map/while/ResizeToRange/cond/Switch:1"
  attr {
    key: "T"
    value {
      type: DT_BOOL
    }
  }
}
node {
  name: "Preprocessor/map/while/ResizeToRange/cond/switch_f"
  op: "Identity"
  input: "Preprocessor/map/while/ResizeToRange/cond/Switch"
  attr {
    key: "T"
    value {
      type: DT_BOOL
    }
  }
}
node {
  name: "Preprocessor/map/while/ResizeToRange/cond/pred_id"
  op: "Identity"
  input: "Preprocessor/map/while/ResizeToRange/Greater"
  attr {
    key: "T"
    value {
      type: DT_BOOL
    }
  }
}
node {
  name: "Preprocessor/map/while/ResizeToRange/cond/Switch_1"
  op: "Switch"
  input: "Preprocessor/map/while/ResizeToRange/stack_1"
  input: "Preprocessor/map/while/ResizeToRange/cond/pred_id"
  attr {
    key: "T"
    value {
      type: DT_INT32
    }
  }
  attr {
    key: "_class"
    value {
      list {
        s: "loc:@Preprocessor/map/while/ResizeToRange/stack_1"
      }
    }
  }
}
node {
  name: "Preprocessor/map/while/ResizeToRange/cond/Switch_2"
  op: "Switch"
  input: "Preprocessor/map/while/ResizeToRange/stack"
  input: "Preprocessor/map/while/ResizeToRange/cond/pred_id"
  attr {
    key: "T"
    value {
      type: DT_INT32
    }
  }
  attr {
    key: "_class"
    value {
      list {
        s: "loc:@Preprocessor/map/while/ResizeToRange/stack"
      }
    }
  }
}
node {
  name: "Preprocessor/map/while/ResizeToRange/cond/Merge"
  op: "Merge"
  input: "Preprocessor/map/while/ResizeToRange/cond/Switch_2"
  input: "Preprocessor/map/while/ResizeToRange/cond/Switch_1:1"
  attr {
    key: "N"
    value {
      i: 2
    }
  }
  attr {
    key: "T"
    value {
      type: DT_INT32
    }
  }
}
node {
  name: "Preprocessor/map/while/ResizeToRange/unstack"
  op: "Unpack"
  input: "Preprocessor/map/while/ResizeToRange/cond/Merge"
  attr {
    key: "T"
    value {
      type: DT_INT32
    }
  }
  attr {
    key: "axis"
    value {
      i: 0
    }
  }
  attr {
    key: "num"
    value {
      i: 2
    }
  }
}
node {
  name: "Preprocessor/map/while/ResizeToRange/stack_2"
  op: "Pack"
  input: "Preprocessor/map/while/ResizeToRange/unstack"
  input: "Preprocessor/map/while/ResizeToRange/unstack:1"
  input: "Preprocessor/map/while/ResizeToRange/strided_slice_2"
  attr {
    key: "N"
    value {
      i: 3
    }
  }
  attr {
    key: "T"
    value {
      type: DT_INT32
    }
  }
  attr {
    key: "axis"
    value {
      i: 0
    }
  }
}
node {
  name: "Preprocessor/map/while/ResizeToRange/strided_slice_3/stack"
  op: "Const"
  input: "^Preprocessor/map/while/Identity"
  attr {
    key: "dtype"
    value {
      type: DT_INT32
    }
  }
  attr {
    key: "value"
    value {
      tensor {
        dtype: DT_INT32
        tensor_shape {
          dim {
            size: 1
          }
        }
        int_val: 0
      }
    }
  }
}
node {
  name: "Preprocessor/map/while/ResizeToRange/strided_slice_3/stack_1"
  op: "Const"
  input: "^Preprocessor/map/while/Identity"
  attr {
    key: "dtype"
    value {
      type: DT_INT32
    }
  }
  attr {
    key: "value"
    value {
      tensor {
        dtype: DT_INT32
        tensor_shape {
          dim {
            size: 1
          }
        }
        int_val: -1
      }
    }
  }
}
node {
  name: "Preprocessor/map/while/ResizeToRange/strided_slice_3/stack_2"
  op: "Const"
  input: "^Preprocessor/map/while/Identity"
  attr {
    key: "dtype"
    value {
      type: DT_INT32
    }
  }
  attr {
    key: "value"
    value {
      tensor {
        dtype: DT_INT32
        tensor_shape {
          dim {
            size: 1
          }
        }
        int_val: 1
      }
    }
  }
}
node {
  name: "Preprocessor/map/while/ResizeToRange/strided_slice_3"
  op: "StridedSlice"
  input: "Preprocessor/map/while/ResizeToRange/stack_2"
  input: "Preprocessor/map/while/ResizeToRange/strided_slice_3/stack"
  input: "Preprocessor/map/while/ResizeToRange/strided_slice_3/stack_1"
  input: "Preprocessor/map/while/ResizeToRange/strided_slice_3/stack_2"
  attr {
    key: "Index"
    value {
      type: DT_INT32
    }
  }
  attr {
    key: "T"
    value {
      type: DT_INT32
    }
  }
  attr {
    key: "begin_mask"
    value {
      i: 1
    }
  }
  attr {
    key: "ellipsis_mask"
    value {
      i: 0
    }
  }
  attr {
    key: "end_mask"
    value {
      i: 0
    }
  }
  attr {
    key: "new_axis_mask"
    value {
      i: 0
    }
  }
  attr {
    key: "shrink_axis_mask"
    value {
      i: 0
    }
  }
}
node {
  name: "Preprocessor/map/while/ResizeToRange/resize/ExpandDims/dim"
  op: "Const"
  input: "^Preprocessor/map/while/Identity"
  attr {
    key: "dtype"
    value {
      type: DT_INT32
    }
  }
  attr {
    key: "value"
    value {
      tensor {
        dtype: DT_INT32
        tensor_shape {
        }
        int_val: 0
      }
    }
  }
}
node {
  name: "Preprocessor/map/while/ResizeToRange/resize/ExpandDims"
  op: "ExpandDims"
  input: "Preprocessor/map/while/TensorArrayReadV3"
  input: "Preprocessor/map/while/ResizeToRange/resize/ExpandDims/dim"
  attr {
    key: "T"
    value {
      type: DT_FLOAT
    }
  }
  attr {
    key: "Tdim"
    value {
      type: DT_INT32
    }
  }
}
node {
  name: "Preprocessor/map/while/ResizeToRange/resize/ResizeBilinear"
  op: "ResizeBilinear"
  input: "Preprocessor/map/while/ResizeToRange/resize/ExpandDims"
  input: "Preprocessor/map/while/ResizeToRange/strided_slice_3"
  attr {
    key: "T"
    value {
      type: DT_FLOAT
    }
  }
  attr {
    key: "align_corners"
    value {
      b: false
    }
  }
}
node {
  name: "Preprocessor/map/while/ResizeToRange/resize/Squeeze"
  op: "Squeeze"
  input: "Preprocessor/map/while/ResizeToRange/resize/ResizeBilinear"
  attr {
    key: "T"
    value {
      type: DT_FLOAT
    }
  }
  attr {
    key: "squeeze_dims"
    value {
      list {
        i: 0
      }
    }
  }
}
node {
  name: "Preprocessor/map/while/TensorArrayWrite/TensorArrayWriteV3"
  op: "TensorArrayWriteV3"
  input: "Preprocessor/map/while/TensorArrayWrite/TensorArrayWriteV3/Enter"
  input: "Preprocessor/map/while/Identity_1"
  input: "Preprocessor/map/while/ResizeToRange/resize/Squeeze"
  input: "Preprocessor/map/while/Identity_2"
  attr {
    key: "T"
    value {
      type: DT_FLOAT
    }
  }
  attr {
    key: "_class"
    value {
      list {
        s: "loc:@Preprocessor/map/while/ResizeToRange/resize/Squeeze"
      }
    }
  }
}
node {
  name: "Preprocessor/map/while/TensorArrayWrite/TensorArrayWriteV3/Enter"
  op: "Enter"
  input: "Preprocessor/map/TensorArray_1"
  attr {
    key: "T"
    value {
      type: DT_RESOURCE
    }
  }
  attr {
    key: "_class"
    value {
      list {
        s: "loc:@Preprocessor/map/while/ResizeToRange/resize/Squeeze"
      }
    }
  }
  attr {
    key: "frame_name"
    value {
      s: "Preprocessor/map/while/while_context"
    }
  }
  attr {
    key: "is_constant"
    value {
      b: true
    }
  }
  attr {
    key: "parallel_iterations"
    value {
      i: 16
    }
  }
}
node {
  name: "Preprocessor/map/while/TensorArrayWrite_1/TensorArrayWriteV3"
  op: "TensorArrayWriteV3"
  input: "Preprocessor/map/while/TensorArrayWrite_1/TensorArrayWriteV3/Enter"
  input: "Preprocessor/map/while/Identity_1"
  input: "Preprocessor/map/while/ResizeToRange/stack_2"
  input: "Preprocessor/map/while/Identity_3"
  attr {
    key: "T"
    value {
      type: DT_INT32
    }
  }
  attr {
    key: "_class"
    value {
      list {
        s: "loc:@Preprocessor/map/while/ResizeToRange/stack_2"
      }
    }
  }
}
node {
  name: "Preprocessor/map/while/TensorArrayWrite_1/TensorArrayWriteV3/Enter"
  op: "Enter"
  input: "Preprocessor/map/TensorArray_2"
  attr {
    key: "T"
    value {
      type: DT_RESOURCE
    }
  }
  attr {
    key: "_class"
    value {
      list {
        s: "loc:@Preprocessor/map/while/ResizeToRange/stack_2"
      }
    }
  }
  attr {
    key: "frame_name"
    value {
      s: "Preprocessor/map/while/while_context"
    }
  }
  attr {
    key: "is_constant"
    value {
      b: true
    }
  }
  attr {
    key: "parallel_iterations"
    value {
      i: 16
    }
  }
}
node {
  name: "Preprocessor/map/while/add_1/y"
  op: "Const"
  input: "^Preprocessor/map/while/Identity"
  attr {
    key: "dtype"
    value {
      type: DT_INT32
    }
  }
  attr {
    key: "value"
    value {
      tensor {
        dtype: DT_INT32
        tensor_shape {
        }
        int_val: 1
      }
    }
  }
}
node {
  name: "Preprocessor/map/while/add_1"
  op: "Add"
  input: "Preprocessor/map/while/Identity_1"
  input: "Preprocessor/map/while/add_1/y"
  attr {
    key: "T"
    value {
      type: DT_INT32
    }
  }
}
node {
  name: "Preprocessor/map/while/NextIteration"
  op: "NextIteration"
  input: "Preprocessor/map/while/add"
  attr {
    key: "T"
    value {
      type: DT_INT32
    }
  }
}
node {
  name: "Preprocessor/map/while/NextIteration_1"
  op: "NextIteration"
  input: "Preprocessor/map/while/add_1"
  attr {
    key: "T"
    value {
      type: DT_INT32
    }
  }
}
node {
  name: "Preprocessor/map/while/NextIteration_2"
  op: "NextIteration"
  input: "Preprocessor/map/while/TensorArrayWrite/TensorArrayWriteV3"
  attr {
    key: "T"
    value {
      type: DT_FLOAT
    }
  }
}
node {
  name: "Preprocessor/map/while/NextIteration_3"
  op: "NextIteration"
  input: "Preprocessor/map/while/TensorArrayWrite_1/TensorArrayWriteV3"
  attr {
    key: "T"
    value {
      type: DT_FLOAT
    }
  }
}
node {
  name: "Preprocessor/map/while/Exit"
  op: "Exit"
  input: "Preprocessor/map/while/Switch"
  attr {
    key: "T"
    value {
      type: DT_INT32
    }
  }
}
node {
  name: "Preprocessor/map/while/Exit_1"
  op: "Exit"
  input: "Preprocessor/map/while/Switch_1"
  attr {
    key: "T"
    value {
      type: DT_INT32
    }
  }
}
node {
  name: "Preprocessor/map/while/Exit_2"
  op: "Exit"
  input: "Preprocessor/map/while/Switch_2"
  attr {
    key: "T"
    value {
      type: DT_FLOAT
    }
  }
}
node {
  name: "Preprocessor/map/while/Exit_3"
  op: "Exit"
  input: "Preprocessor/map/while/Switch_3"
  attr {
    key: "T"
    value {
      type: DT_FLOAT
    }
  }
}
node {
  name: "Preprocessor/map/TensorArrayStack/TensorArraySizeV3"
  op: "TensorArraySizeV3"
  input: "Preprocessor/map/TensorArray_1"
  input: "Preprocessor/map/while/Exit_2"
  attr {
    key: "_class"
    value {
      list {
        s: "loc:@Preprocessor/map/TensorArray_1"
      }
    }
  }
}
node {
  name: "Preprocessor/map/TensorArrayStack/range/start"
  op: "Const"
  attr {
    key: "_class"
    value {
      list {
        s: "loc:@Preprocessor/map/TensorArray_1"
      }
    }
  }
  attr {
    key: "dtype"
    value {
      type: DT_INT32
    }
  }
  attr {
    key: "value"
    value {
      tensor {
        dtype: DT_INT32
        tensor_shape {
        }
        int_val: 0
      }
    }
  }
}
node {
  name: "Preprocessor/map/TensorArrayStack/range/delta"
  op: "Const"
  attr {
    key: "_class"
    value {
      list {
        s: "loc:@Preprocessor/map/TensorArray_1"
      }
    }
  }
  attr {
    key: "dtype"
    value {
      type: DT_INT32
    }
  }
  attr {
    key: "value"
    value {
      tensor {
        dtype: DT_INT32
        tensor_shape {
        }
        int_val: 1
      }
    }
  }
}
node {
  name: "Preprocessor/map/TensorArrayStack/range"
  op: "Range"
  input: "Preprocessor/map/TensorArrayStack/range/start"
  input: "Preprocessor/map/TensorArrayStack/TensorArraySizeV3"
  input: "Preprocessor/map/TensorArrayStack/range/delta"
  attr {
    key: "Tidx"
    value {
      type: DT_INT32
    }
  }
  attr {
    key: "_class"
    value {
      list {
        s: "loc:@Preprocessor/map/TensorArray_1"
      }
    }
  }
}
node {
  name: "Preprocessor/map/TensorArrayStack/TensorArrayGatherV3"
  op: "TensorArrayGatherV3"
  input: "Preprocessor/map/TensorArray_1"
  input: "Preprocessor/map/TensorArrayStack/range"
  input: "Preprocessor/map/while/Exit_2"
  attr {
    key: "_class"
    value {
      list {
        s: "loc:@Preprocessor/map/TensorArray_1"
      }
    }
  }
  attr {
    key: "dtype"
    value {
      type: DT_FLOAT
    }
  }
  attr {
    key: "element_shape"
    value {
      shape {
        dim {
          size: -1
        }
        dim {
          size: -1
        }
        dim {
          size: 3
        }
      }
    }
  }
}
node {
  name: "Preprocessor/map/TensorArrayStack_1/TensorArraySizeV3"
  op: "TensorArraySizeV3"
  input: "Preprocessor/map/TensorArray_2"
  input: "Preprocessor/map/while/Exit_3"
  attr {
    key: "_class"
    value {
      list {
        s: "loc:@Preprocessor/map/TensorArray_2"
      }
    }
  }
}
node {
  name: "Preprocessor/map/TensorArrayStack_1/range/start"
  op: "Const"
  attr {
    key: "_class"
    value {
      list {
        s: "loc:@Preprocessor/map/TensorArray_2"
      }
    }
  }
  attr {
    key: "dtype"
    value {
      type: DT_INT32
    }
  }
  attr {
    key: "value"
    value {
      tensor {
        dtype: DT_INT32
        tensor_shape {
        }
        int_val: 0
      }
    }
  }
}
node {
  name: "Preprocessor/map/TensorArrayStack_1/range/delta"
  op: "Const"
  attr {
    key: "_class"
    value {
      list {
        s: "loc:@Preprocessor/map/TensorArray_2"
      }
    }
  }
  attr {
    key: "dtype"
    value {
      type: DT_INT32
    }
  }
  attr {
    key: "value"
    value {
      tensor {
        dtype: DT_INT32
        tensor_shape {
        }
        int_val: 1
      }
    }
  }
}
node {
  name: "Preprocessor/map/TensorArrayStack_1/range"
  op: "Range"
  input: "Preprocessor/map/TensorArrayStack_1/range/start"
  input: "Preprocessor/map/TensorArrayStack_1/TensorArraySizeV3"
  input: "Preprocessor/map/TensorArrayStack_1/range/delta"
  attr {
    key: "Tidx"
    value {
      type: DT_INT32
    }
  }
  attr {
    key: "_class"
    value {
      list {
        s: "loc:@Preprocessor/map/TensorArray_2"
      }
    }
  }
}
node {
  name: "Preprocessor/map/TensorArrayStack_1/TensorArrayGatherV3"
  op: "TensorArrayGatherV3"
  input: "Preprocessor/map/TensorArray_2"
  input: "Preprocessor/map/TensorArrayStack_1/range"
  input: "Preprocessor/map/while/Exit_3"
  attr {
    key: "_class"
    value {
      list {
        s: "loc:@Preprocessor/map/TensorArray_2"
      }
    }
  }
  attr {
    key: "dtype"
    value {
      type: DT_INT32
    }
  }
  attr {
    key: "element_shape"
    value {
      shape {
        dim {
          size: 3
        }
      }
    }
  }
}
node {
  name: "Preprocessor/mul/x"
  op: "Const"
  attr {
    key: "dtype"
    value {
      type: DT_FLOAT
    }
  }
  attr {
    key: "value"
    value {
      tensor {
        dtype: DT_FLOAT
        tensor_shape {
        }
        float_val: 0.007843137718737125
      }
    }
  }
}
node {
  name: "Preprocessor/mul"
  op: "Mul"
  input: "Preprocessor/mul/x"
  input: "Preprocessor/map/TensorArrayStack/TensorArrayGatherV3"
  attr {
    key: "T"
    value {
      type: DT_FLOAT
    }
  }
}
node {
  name: "Preprocessor/sub/y"
  op: "Const"
  attr {
    key: "dtype"
    value {
      type: DT_FLOAT
    }
  }
  attr {
    key: "value"
    value {
      tensor {
        dtype: DT_FLOAT
        tensor_shape {
        }
        float_val: 1.0
      }
    }
  }
}
node {
  name: "Preprocessor/sub"
  op: "Sub"
  input: "Preprocessor/mul"
  input: "Preprocessor/sub/y"
  attr {
    key: "T"
    value {
      type: DT_FLOAT
    }
  }
}
node {
  name: "Shape"
  op: "Shape"
  input: "Preprocessor/sub"
  attr {
    key: "T"
    value {
      type: DT_FLOAT
    }
  }
  attr {
    key: "out_type"
    value {
      type: DT_INT32
    }
  }
}
node {
  name: "FirstStageFeatureExtractor/Shape"
  op: "Shape"
  input: "Preprocessor/sub"
  attr {
    key: "T"
    value {
      type: DT_FLOAT
    }
  }
  attr {
    key: "out_type"
    value {
      type: DT_INT32
    }
  }
}
node {
  name: "FirstStageFeatureExtractor/strided_slice/stack"
  op: "Const"
  attr {
    key: "dtype"
    value {
      type: DT_INT32
    }
  }
  attr {
    key: "value"
    value {
      tensor {
        dtype: DT_INT32
        tensor_shape {
          dim {
            size: 1
          }
        }
        int_val: 1
      }
    }
  }
}
node {
  name: "FirstStageFeatureExtractor/strided_slice/stack_1"
  op: "Const"
  attr {
    key: "dtype"
    value {
      type: DT_INT32
    }
  }
  attr {
    key: "value"
    value {
      tensor {
        dtype: DT_INT32
        tensor_shape {
          dim {
            size: 1
          }
        }
        int_val: 2
      }
    }
  }
}
node {
  name: "FirstStageFeatureExtractor/strided_slice/stack_2"
  op: "Const"
  attr {
    key: "dtype"
    value {
      type: DT_INT32
    }
  }
  attr {
    key: "value"
    value {
      tensor {
        dtype: DT_INT32
        tensor_shape {
          dim {
            size: 1
          }
        }
        int_val: 1
      }
    }
  }
}
node {
  name: "FirstStageFeatureExtractor/strided_slice"
  op: "StridedSlice"
  input: "FirstStageFeatureExtractor/Shape"
  input: "FirstStageFeatureExtractor/strided_slice/stack"
  input: "FirstStageFeatureExtractor/strided_slice/stack_1"
  input: "FirstStageFeatureExtractor/strided_slice/stack_2"
  attr {
    key: "Index"
    value {
      type: DT_INT32
    }
  }
  attr {
    key: "T"
    value {
      type: DT_INT32
    }
  }
  attr {
    key: "begin_mask"
    value {
      i: 0
    }
  }
  attr {
    key: "ellipsis_mask"
    value {
      i: 0
    }
  }
  attr {
    key: "end_mask"
    value {
      i: 0
    }
  }
  attr {
    key: "new_axis_mask"
    value {
      i: 0
    }
  }
  attr {
    key: "shrink_axis_mask"
    value {
      i: 1
    }
  }
}
node {
  name: "FirstStageFeatureExtractor/GreaterEqual/y"
  op: "Const"
  attr {
    key: "dtype"
    value {
      type: DT_INT32
    }
  }
  attr {
    key: "value"
    value {
      tensor {
        dtype: DT_INT32
        tensor_shape {
        }
        int_val: 33
      }
    }
  }
}
node {
  name: "FirstStageFeatureExtractor/GreaterEqual"
  op: "GreaterEqual"
  input: "FirstStageFeatureExtractor/strided_slice"
  input: "FirstStageFeatureExtractor/GreaterEqual/y"
  attr {
    key: "T"
    value {
      type: DT_INT32
    }
  }
}
node {
  name: "FirstStageFeatureExtractor/Shape_1"
  op: "Shape"
  input: "Preprocessor/sub"
  attr {
    key: "T"
    value {
      type: DT_FLOAT
    }
  }
  attr {
    key: "out_type"
    value {
      type: DT_INT32
    }
  }
}
node {
  name: "FirstStageFeatureExtractor/strided_slice_1/stack"
  op: "Const"
  attr {
    key: "dtype"
    value {
      type: DT_INT32
    }
  }
  attr {
    key: "value"
    value {
      tensor {
        dtype: DT_INT32
        tensor_shape {
          dim {
            size: 1
          }
        }
        int_val: 2
      }
    }
  }
}
node {
  name: "FirstStageFeatureExtractor/strided_slice_1/stack_1"
  op: "Const"
  attr {
    key: "dtype"
    value {
      type: DT_INT32
    }
  }
  attr {
    key: "value"
    value {
      tensor {
        dtype: DT_INT32
        tensor_shape {
          dim {
            size: 1
          }
        }
        int_val: 3
      }
    }
  }
}
node {
  name: "FirstStageFeatureExtractor/strided_slice_1/stack_2"
  op: "Const"
  attr {
    key: "dtype"
    value {
      type: DT_INT32
    }
  }
  attr {
    key: "value"
    value {
      tensor {
        dtype: DT_INT32
        tensor_shape {
          dim {
            size: 1
          }
        }
        int_val: 1
      }
    }
  }
}
node {
  name: "FirstStageFeatureExtractor/strided_slice_1"
  op: "StridedSlice"
  input: "FirstStageFeatureExtractor/Shape_1"
  input: "FirstStageFeatureExtractor/strided_slice_1/stack"
  input: "FirstStageFeatureExtractor/strided_slice_1/stack_1"
  input: "FirstStageFeatureExtractor/strided_slice_1/stack_2"
  attr {
    key: "Index"
    value {
      type: DT_INT32
    }
  }
  attr {
    key: "T"
    value {
      type: DT_INT32
    }
  }
  attr {
    key: "begin_mask"
    value {
      i: 0
    }
  }
  attr {
    key: "ellipsis_mask"
    value {
      i: 0
    }
  }
  attr {
    key: "end_mask"
    value {
      i: 0
    }
  }
  attr {
    key: "new_axis_mask"
    value {
      i: 0
    }
  }
  attr {
    key: "shrink_axis_mask"
    value {
      i: 1
    }
  }
}
node {
  name: "FirstStageFeatureExtractor/GreaterEqual_1/y"
  op: "Const"
  attr {
    key: "dtype"
    value {
      type: DT_INT32
    }
  }
  attr {
    key: "value"
    value {
      tensor {
        dtype: DT_INT32
        tensor_shape {
        }
        int_val: 33
      }
    }
  }
}
node {
  name: "FirstStageFeatureExtractor/GreaterEqual_1"
  op: "GreaterEqual"
  input: "FirstStageFeatureExtractor/strided_slice_1"
  input: "FirstStageFeatureExtractor/GreaterEqual_1/y"
  attr {
    key: "T"
    value {
      type: DT_INT32
    }
  }
}
node {
  name: "FirstStageFeatureExtractor/LogicalAnd"
  op: "LogicalAnd"
  input: "FirstStageFeatureExtractor/GreaterEqual"
  input: "FirstStageFeatureExtractor/GreaterEqual_1"
}
node {
  name: "FirstStageFeatureExtractor/Assert/Const"
  op: "Const"
  attr {
    key: "dtype"
    value {
      type: DT_STRING
    }
  }
  attr {
    key: "value"
    value {
      tensor {
        dtype: DT_STRING
        tensor_shape {
        }
        string_val: "image size must at least be 33 in both height and width."
      }
    }
  }
}
node {
  name: "FirstStageFeatureExtractor/Assert/Assert/data_0"
  op: "Const"
  attr {
    key: "dtype"
    value {
      type: DT_STRING
    }
  }
  attr {
    key: "value"
    value {
      tensor {
        dtype: DT_STRING
        tensor_shape {
        }
        string_val: "image size must at least be 33 in both height and width."
      }
    }
  }
}
node {
  name: "FirstStageFeatureExtractor/Assert/Assert"
  op: "Assert"
  input: "FirstStageFeatureExtractor/LogicalAnd"
  input: "FirstStageFeatureExtractor/Assert/Assert/data_0"
  attr {
    key: "T"
    value {
      list {
        type: DT_STRING
      }
    }
  }
  attr {
    key: "summarize"
    value {
      i: 3
    }
  }
}
node {
  name: "FirstStageFeatureExtractor/InceptionV2/Conv2d_1a_7x7/depthwise_weights/Initializer/truncated_normal/shape"
  op: "Const"
  attr {
    key: "_class"
    value {
      list {
        s: "loc:@FirstStageFeatureExtractor/InceptionV2/Conv2d_1a_7x7/depthwise_weights"
      }
    }
  }
  attr {
    key: "dtype"
    value {
      type: DT_INT32
    }
  }
  attr {
    key: "value"
    value {
      tensor {
        dtype: DT_INT32
        tensor_shape {
          dim {
            size: 4
          }
        }
        tensor_content: "\007\000\000\000\007\000\000\000\003\000\000\000\010\000\000\000"
      }
    }
  }
}
node {
  name: "FirstStageFeatureExtractor/InceptionV2/Conv2d_1a_7x7/depthwise_weights/Initializer/truncated_normal/mean"
  op: "Const"
  attr {
    key: "_class"
    value {
      list {
        s: "loc:@FirstStageFeatureExtractor/InceptionV2/Conv2d_1a_7x7/depthwise_weights"
      }
    }
  }
  attr {
    key: "dtype"
    value {
      type: DT_FLOAT
    }
  }
  attr {
    key: "value"
    value {
      tensor {
        dtype: DT_FLOAT
        tensor_shape {
        }
        float_val: 0.0
      }
    }
  }
}
node {
  name: "FirstStageFeatureExtractor/InceptionV2/Conv2d_1a_7x7/depthwise_weights/Initializer/truncated_normal/stddev"
  op: "Const"
  attr {
    key: "_class"
    value {
      list {
        s: "loc:@FirstStageFeatureExtractor/InceptionV2/Conv2d_1a_7x7/depthwise_weights"
      }
    }
  }
  attr {
    key: "dtype"
    value {
      type: DT_FLOAT
    }
  }
  attr {
    key: "value"
    value {
      tensor {
        dtype: DT_FLOAT
        tensor_shape {
        }
        float_val: 1.0
      }
    }
  }
}
node {
  name: "FirstStageFeatureExtractor/InceptionV2/Conv2d_1a_7x7/depthwise_weights/Initializer/truncated_normal/TruncatedNormal"
  op: "TruncatedNormal"
  input: "FirstStageFeatureExtractor/InceptionV2/Conv2d_1a_7x7/depthwise_weights/Initializer/truncated_normal/shape"
  attr {
    key: "T"
    value {
      type: DT_INT32
    }
  }
  attr {
    key: "_class"
    value {
      list {
        s: "loc:@FirstStageFeatureExtractor/InceptionV2/Conv2d_1a_7x7/depthwise_weights"
      }
    }
  }
  attr {
    key: "dtype"
    value {
      type: DT_FLOAT
    }
  }
  attr {
    key: "seed"
    value {
      i: 0
    }
  }
  attr {
    key: "seed2"
    value {
      i: 0
    }
  }
}
node {
  name: "FirstStageFeatureExtractor/InceptionV2/Conv2d_1a_7x7/depthwise_weights/Initializer/truncated_normal/mul"
  op: "Mul"
  input: "FirstStageFeatureExtractor/InceptionV2/Conv2d_1a_7x7/depthwise_weights/Initializer/truncated_normal/TruncatedNormal"
  input: "FirstStageFeatureExtractor/InceptionV2/Conv2d_1a_7x7/depthwise_weights/Initializer/truncated_normal/stddev"
  attr {
    key: "T"
    value {
      type: DT_FLOAT
    }
  }
  attr {
    key: "_class"
    value {
      list {
        s: "loc:@FirstStageFeatureExtractor/InceptionV2/Conv2d_1a_7x7/depthwise_weights"
      }
    }
  }
}
node {
  name: "FirstStageFeatureExtractor/InceptionV2/Conv2d_1a_7x7/depthwise_weights/Initializer/truncated_normal"
  op: "Add"
  input: "FirstStageFeatureExtractor/InceptionV2/Conv2d_1a_7x7/depthwise_weights/Initializer/truncated_normal/mul"
  input: "FirstStageFeatureExtractor/InceptionV2/Conv2d_1a_7x7/depthwise_weights/Initializer/truncated_normal/mean"
  attr {
    key: "T"
    value {
      type: DT_FLOAT
    }
  }
  attr {
    key: "_class"
    value {
      list {
        s: "loc:@FirstStageFeatureExtractor/InceptionV2/Conv2d_1a_7x7/depthwise_weights"
      }
    }
  }
}
node {
  name: "FirstStageFeatureExtractor/InceptionV2/Conv2d_1a_7x7/depthwise_weights"
  op: "VariableV2"
  attr {
    key: "_class"
    value {
      list {
        s: "loc:@FirstStageFeatureExtractor/InceptionV2/Conv2d_1a_7x7/depthwise_weights"
      }
    }
  }
  attr {
    key: "container"
    value {
      s: ""
    }
  }
  attr {
    key: "dtype"
    value {
      type: DT_FLOAT
    }
  }
  attr {
    key: "shape"
    value {
      shape {
        dim {
          size: 7
        }
        dim {
          size: 7
        }
        dim {
          size: 3
        }
        dim {
          size: 8
        }
      }
    }
  }
  attr {
    key: "shared_name"
    value {
      s: ""
    }
  }
}
node {
  name: "FirstStageFeatureExtractor/InceptionV2/Conv2d_1a_7x7/depthwise_weights/Assign"
  op: "Assign"
  input: "FirstStageFeatureExtractor/InceptionV2/Conv2d_1a_7x7/depthwise_weights"
  input: "FirstStageFeatureExtractor/InceptionV2/Conv2d_1a_7x7/depthwise_weights/Initializer/truncated_normal"
  attr {
    key: "T"
    value {
      type: DT_FLOAT
    }
  }
  attr {
    key: "_class"
    value {
      list {
        s: "loc:@FirstStageFeatureExtractor/InceptionV2/Conv2d_1a_7x7/depthwise_weights"
      }
    }
  }
  attr {
    key: "use_locking"
    value {
      b: true
    }
  }
  attr {
    key: "validate_shape"
    value {
      b: true
    }
  }
}
node {
  name: "FirstStageFeatureExtractor/InceptionV2/Conv2d_1a_7x7/depthwise_weights/read"
  op: "Identity"
  input: "FirstStageFeatureExtractor/InceptionV2/Conv2d_1a_7x7/depthwise_weights"
  attr {
    key: "T"
    value {
      type: DT_FLOAT
    }
  }
  attr {
    key: "_class"
    value {
      list {
        s: "loc:@FirstStageFeatureExtractor/InceptionV2/Conv2d_1a_7x7/depthwise_weights"
      }
    }
  }
}
node {
  name: "FirstStageFeatureExtractor/InceptionV2/Conv2d_1a_7x7/pointwise_weights/Initializer/truncated_normal/shape"
  op: "Const"
  attr {
    key: "_class"
    value {
      list {
        s: "loc:@FirstStageFeatureExtractor/InceptionV2/Conv2d_1a_7x7/pointwise_weights"
      }
    }
  }
  attr {
    key: "dtype"
    value {
      type: DT_INT32
    }
  }
  attr {
    key: "value"
    value {
      tensor {
        dtype: DT_INT32
        tensor_shape {
          dim {
            size: 4
          }
        }
        tensor_content: "\001\000\000\000\001\000\000\000\030\000\000\000@\000\000\000"
      }
    }
  }
}
node {
  name: "FirstStageFeatureExtractor/InceptionV2/Conv2d_1a_7x7/pointwise_weights/Initializer/truncated_normal/mean"
  op: "Const"
  attr {
    key: "_class"
    value {
      list {
        s: "loc:@FirstStageFeatureExtractor/InceptionV2/Conv2d_1a_7x7/pointwise_weights"
      }
    }
  }
  attr {
    key: "dtype"
    value {
      type: DT_FLOAT
    }
  }
  attr {
    key: "value"
    value {
      tensor {
        dtype: DT_FLOAT
        tensor_shape {
        }
        float_val: 0.0
      }
    }
  }
}
node {
  name: "FirstStageFeatureExtractor/InceptionV2/Conv2d_1a_7x7/pointwise_weights/Initializer/truncated_normal/stddev"
  op: "Const"
  attr {
    key: "_class"
    value {
      list {
        s: "loc:@FirstStageFeatureExtractor/InceptionV2/Conv2d_1a_7x7/pointwise_weights"
      }
    }
  }
  attr {
    key: "dtype"
    value {
      type: DT_FLOAT
    }
  }
  attr {
    key: "value"
    value {
      tensor {
        dtype: DT_FLOAT
        tensor_shape {
        }
        float_val: 1.0
      }
    }
  }
}
node {
  name: "FirstStageFeatureExtractor/InceptionV2/Conv2d_1a_7x7/pointwise_weights/Initializer/truncated_normal/TruncatedNormal"
  op: "TruncatedNormal"
  input: "FirstStageFeatureExtractor/InceptionV2/Conv2d_1a_7x7/pointwise_weights/Initializer/truncated_normal/shape"
  attr {
    key: "T"
    value {
      type: DT_INT32
    }
  }
  attr {
    key: "_class"
    value {
      list {
        s: "loc:@FirstStageFeatureExtractor/InceptionV2/Conv2d_1a_7x7/pointwise_weights"
      }
    }
  }
  attr {
    key: "dtype"
    value {
      type: DT_FLOAT
    }
  }
  attr {
    key: "seed"
    value {
      i: 0
    }
  }
  attr {
    key: "seed2"
    value {
      i: 0
    }
  }
}
node {
  name: "FirstStageFeatureExtractor/InceptionV2/Conv2d_1a_7x7/pointwise_weights/Initializer/truncated_normal/mul"
  op: "Mul"
  input: "FirstStageFeatureExtractor/InceptionV2/Conv2d_1a_7x7/pointwise_weights/Initializer/truncated_normal/TruncatedNormal"
  input: "FirstStageFeatureExtractor/InceptionV2/Conv2d_1a_7x7/pointwise_weights/Initializer/truncated_normal/stddev"
  attr {
    key: "T"
    value {
      type: DT_FLOAT
    }
  }
  attr {
    key: "_class"
    value {
      list {
        s: "loc:@FirstStageFeatureExtractor/InceptionV2/Conv2d_1a_7x7/pointwise_weights"
      }
    }
  }
}
node {
  name: "FirstStageFeatureExtractor/InceptionV2/Conv2d_1a_7x7/pointwise_weights/Initializer/truncated_normal"
  op: "Add"
  input: "FirstStageFeatureExtractor/InceptionV2/Conv2d_1a_7x7/pointwise_weights/Initializer/truncated_normal/mul"
  input: "FirstStageFeatureExtractor/InceptionV2/Conv2d_1a_7x7/pointwise_weights/Initializer/truncated_normal/mean"
  attr {
    key: "T"
    value {
      type: DT_FLOAT
    }
  }
  attr {
    key: "_class"
    value {
      list {
        s: "loc:@FirstStageFeatureExtractor/InceptionV2/Conv2d_1a_7x7/pointwise_weights"
      }
    }
  }
}
node {
  name: "FirstStageFeatureExtractor/InceptionV2/Conv2d_1a_7x7/pointwise_weights"
  op: "VariableV2"
  attr {
    key: "_class"
    value {
      list {
        s: "loc:@FirstStageFeatureExtractor/InceptionV2/Conv2d_1a_7x7/pointwise_weights"
      }
    }
  }
  attr {
    key: "container"
    value {
      s: ""
    }
  }
  attr {
    key: "dtype"
    value {
      type: DT_FLOAT
    }
  }
  attr {
    key: "shape"
    value {
      shape {
        dim {
          size: 1
        }
        dim {
          size: 1
        }
        dim {
          size: 24
        }
        dim {
          size: 64
        }
      }
    }
  }
  attr {
    key: "shared_name"
    value {
      s: ""
    }
  }
}
node {
  name: "FirstStageFeatureExtractor/InceptionV2/Conv2d_1a_7x7/pointwise_weights/Assign"
  op: "Assign"
  input: "FirstStageFeatureExtractor/InceptionV2/Conv2d_1a_7x7/pointwise_weights"
  input: "FirstStageFeatureExtractor/InceptionV2/Conv2d_1a_7x7/pointwise_weights/Initializer/truncated_normal"
  attr {
    key: "T"
    value {
      type: DT_FLOAT
    }
  }
  attr {
    key: "_class"
    value {
      list {
        s: "loc:@FirstStageFeatureExtractor/InceptionV2/Conv2d_1a_7x7/pointwise_weights"
      }
    }
  }
  attr {
    key: "use_locking"
    value {
      b: true
    }
  }
  attr {
    key: "validate_shape"
    value {
      b: true
    }
  }
}
node {
  name: "FirstStageFeatureExtractor/InceptionV2/Conv2d_1a_7x7/pointwise_weights/read"
  op: "Identity"
  input: "FirstStageFeatureExtractor/InceptionV2/Conv2d_1a_7x7/pointwise_weights"
  attr {
    key: "T"
    value {
      type: DT_FLOAT
    }
  }
  attr {
    key: "_class"
    value {
      list {
        s: "loc:@FirstStageFeatureExtractor/InceptionV2/Conv2d_1a_7x7/pointwise_weights"
      }
    }
  }
}
node {
  name: "FirstStageFeatureExtractor/InceptionV2/InceptionV2/Conv2d_1a_7x7/separable_conv2d/Shape"
  op: "Const"
  input: "^FirstStageFeatureExtractor/Assert/Assert"
  attr {
    key: "dtype"
    value {
      type: DT_INT32
    }
  }
  attr {
    key: "value"
    value {
      tensor {
        dtype: DT_INT32
        tensor_shape {
          dim {
            size: 4
          }
        }
        tensor_content: "\007\000\000\000\007\000\000\000\003\000\000\000\010\000\000\000"
      }
    }
  }
}
node {
  name: "FirstStageFeatureExtractor/InceptionV2/InceptionV2/Conv2d_1a_7x7/separable_conv2d/dilation_rate"
  op: "Const"
  input: "^FirstStageFeatureExtractor/Assert/Assert"
  attr {
    key: "dtype"
    value {
      type: DT_INT32
    }
  }
  attr {
    key: "value"
    value {
      tensor {
        dtype: DT_INT32
        tensor_shape {
          dim {
            size: 2
          }
        }
        tensor_content: "\001\000\000\000\001\000\000\000"
      }
    }
  }
}
node {
  name: "FirstStageFeatureExtractor/InceptionV2/InceptionV2/Conv2d_1a_7x7/separable_conv2d/depthwise"
  op: "DepthwiseConv2dNative"
  input: "Preprocessor/sub"
  input: "FirstStageFeatureExtractor/InceptionV2/Conv2d_1a_7x7/depthwise_weights/read"
  input: "^FirstStageFeatureExtractor/Assert/Assert"
  attr {
    key: "T"
    value {
      type: DT_FLOAT
    }
  }
  attr {
    key: "data_format"
    value {
      s: "NHWC"
    }
  }
  attr {
    key: "dilations"
    value {
      list {
        i: 1
        i: 1
        i: 1
        i: 1
      }
    }
  }
  attr {
    key: "padding"
    value {
      s: "SAME"
    }
  }
  attr {
    key: "strides"
    value {
      list {
        i: 1
        i: 2
        i: 2
        i: 1
      }
    }
  }
}
node {
  name: "FirstStageFeatureExtractor/InceptionV2/InceptionV2/Conv2d_1a_7x7/separable_conv2d"
  op: "Conv2D"
  input: "FirstStageFeatureExtractor/InceptionV2/InceptionV2/Conv2d_1a_7x7/separable_conv2d/depthwise"
  input: "FirstStageFeatureExtractor/InceptionV2/Conv2d_1a_7x7/pointwise_weights/read"
  attr {
    key: "T"
    value {
      type: DT_FLOAT
    }
  }
  attr {
    key: "data_format"
    value {
      s: "NHWC"
    }
  }
  attr {
    key: "dilations"
    value {
      list {
        i: 1
        i: 1
        i: 1
        i: 1
      }
    }
  }
  attr {
    key: "padding"
    value {
      s: "VALID"
    }
  }
  attr {
    key: "strides"
    value {
      list {
        i: 1
        i: 1
        i: 1
        i: 1
      }
    }
  }
  attr {
    key: "use_cudnn_on_gpu"
    value {
      b: true
    }
  }
}
node {
  name: "FirstStageFeatureExtractor/InceptionV2/Conv2d_1a_7x7/BatchNorm/gamma/Initializer/ones"
  op: "Const"
  attr {
    key: "_class"
    value {
      list {
        s: "loc:@FirstStageFeatureExtractor/InceptionV2/Conv2d_1a_7x7/BatchNorm/gamma"
      }
    }
  }
  attr {
    key: "dtype"
    value {
      type: DT_FLOAT
    }
  }
  attr {
    key: "value"
    value {
      tensor {
        dtype: DT_FLOAT
        tensor_shape {
          dim {
            size: 64
          }
        }
        float_val: 1.0
      }
    }
  }
}
node {
  name: "FirstStageFeatureExtractor/InceptionV2/Conv2d_1a_7x7/BatchNorm/gamma"
  op: "VariableV2"
  attr {
    key: "_class"
    value {
      list {
        s: "loc:@FirstStageFeatureExtractor/InceptionV2/Conv2d_1a_7x7/BatchNorm/gamma"
      }
    }
  }
  attr {
    key: "container"
    value {
      s: ""
    }
  }
  attr {
    key: "dtype"
    value {
      type: DT_FLOAT
    }
  }
  attr {
    key: "shape"
    value {
      shape {
        dim {
          size: 64
        }
      }
    }
  }
  attr {
    key: "shared_name"
    value {
      s: ""
    }
  }
}
node {
  name: "FirstStageFeatureExtractor/InceptionV2/Conv2d_1a_7x7/BatchNorm/gamma/Assign"
  op: "Assign"
  input: "FirstStageFeatureExtractor/InceptionV2/Conv2d_1a_7x7/BatchNorm/gamma"
  input: "FirstStageFeatureExtractor/InceptionV2/Conv2d_1a_7x7/BatchNorm/gamma/Initializer/ones"
  attr {
    key: "T"
    value {
      type: DT_FLOAT
    }
  }
  attr {
    key: "_class"
    value {
      list {
        s: "loc:@FirstStageFeatureExtractor/InceptionV2/Conv2d_1a_7x7/BatchNorm/gamma"
      }
    }
  }
  attr {
    key: "use_locking"
    value {
      b: true
    }
  }
  attr {
    key: "validate_shape"
    value {
      b: true
    }
  }
}
node {
  name: "FirstStageFeatureExtractor/InceptionV2/Conv2d_1a_7x7/BatchNorm/gamma/read"
  op: "Identity"
  input: "FirstStageFeatureExtractor/InceptionV2/Conv2d_1a_7x7/BatchNorm/gamma"
  attr {
    key: "T"
    value {
      type: DT_FLOAT
    }
  }
  attr {
    key: "_class"
    value {
      list {
        s: "loc:@FirstStageFeatureExtractor/InceptionV2/Conv2d_1a_7x7/BatchNorm/gamma"
      }
    }
  }
}
node {
  name: "FirstStageFeatureExtractor/InceptionV2/Conv2d_1a_7x7/BatchNorm/beta/Initializer/zeros"
  op: "Const"
  attr {
    key: "_class"
    value {
      list {
        s: "loc:@FirstStageFeatureExtractor/InceptionV2/Conv2d_1a_7x7/BatchNorm/beta"
      }
    }
  }
  attr {
    key: "dtype"
    value {
      type: DT_FLOAT
    }
  }
  attr {
    key: "value"
    value {
      tensor {
        dtype: DT_FLOAT
        tensor_shape {
          dim {
            size: 64
          }
        }
        float_val: 0.0
      }
    }
  }
}
node {
  name: "FirstStageFeatureExtractor/InceptionV2/Conv2d_1a_7x7/BatchNorm/beta"
  op: "VariableV2"
  attr {
    key: "_class"
    value {
      list {
        s: "loc:@FirstStageFeatureExtractor/InceptionV2/Conv2d_1a_7x7/BatchNorm/beta"
      }
    }
  }
  attr {
    key: "container"
    value {
      s: ""
    }
  }
  attr {
    key: "dtype"
    value {
      type: DT_FLOAT
    }
  }
  attr {
    key: "shape"
    value {
      shape {
        dim {
          size: 64
        }
      }
    }
  }
  attr {
    key: "shared_name"
    value {
      s: ""
    }
  }
}
node {
  name: "FirstStageFeatureExtractor/InceptionV2/Conv2d_1a_7x7/BatchNorm/beta/Assign"
  op: "Assign"
  input: "FirstStageFeatureExtractor/InceptionV2/Conv2d_1a_7x7/BatchNorm/beta"
  input: "FirstStageFeatureExtractor/InceptionV2/Conv2d_1a_7x7/BatchNorm/beta/Initializer/zeros"
  attr {
    key: "T"
    value {
      type: DT_FLOAT
    }
  }
  attr {
    key: "_class"
    value {
      list {
        s: "loc:@FirstStageFeatureExtractor/InceptionV2/Conv2d_1a_7x7/BatchNorm/beta"
      }
    }
  }
  attr {
    key: "use_locking"
    value {
      b: true
    }
  }
  attr {
    key: "validate_shape"
    value {
      b: true
    }
  }
}
node {
  name: "FirstStageFeatureExtractor/InceptionV2/Conv2d_1a_7x7/BatchNorm/beta/read"
  op: "Identity"
  input: "FirstStageFeatureExtractor/InceptionV2/Conv2d_1a_7x7/BatchNorm/beta"
  attr {
    key: "T"
    value {
      type: DT_FLOAT
    }
  }
  attr {
    key: "_class"
    value {
      list {
        s: "loc:@FirstStageFeatureExtractor/InceptionV2/Conv2d_1a_7x7/BatchNorm/beta"
      }
    }
  }
}
node {
  name: "FirstStageFeatureExtractor/InceptionV2/Conv2d_1a_7x7/BatchNorm/moving_mean/Initializer/zeros"
  op: "Const"
  attr {
    key: "_class"
    value {
      list {
        s: "loc:@FirstStageFeatureExtractor/InceptionV2/Conv2d_1a_7x7/BatchNorm/moving_mean"
      }
    }
  }
  attr {
    key: "dtype"
    value {
      type: DT_FLOAT
    }
  }
  attr {
    key: "value"
    value {
      tensor {
        dtype: DT_FLOAT
        tensor_shape {
          dim {
            size: 64
          }
        }
        float_val: 0.0
      }
    }
  }
}
node {
  name: "FirstStageFeatureExtractor/InceptionV2/Conv2d_1a_7x7/BatchNorm/moving_mean"
  op: "VariableV2"
  attr {
    key: "_class"
    value {
      list {
        s: "loc:@FirstStageFeatureExtractor/InceptionV2/Conv2d_1a_7x7/BatchNorm/moving_mean"
      }
    }
  }
  attr {
    key: "container"
    value {
      s: ""
    }
  }
  attr {
    key: "dtype"
    value {
      type: DT_FLOAT
    }
  }
  attr {
    key: "shape"
    value {
      shape {
        dim {
          size: 64
        }
      }
    }
  }
  attr {
    key: "shared_name"
    value {
      s: ""
    }
  }
}
node {
  name: "FirstStageFeatureExtractor/InceptionV2/Conv2d_1a_7x7/BatchNorm/moving_mean/Assign"
  op: "Assign"
  input: "FirstStageFeatureExtractor/InceptionV2/Conv2d_1a_7x7/BatchNorm/moving_mean"
  input: "FirstStageFeatureExtractor/InceptionV2/Conv2d_1a_7x7/BatchNorm/moving_mean/Initializer/zeros"
  attr {
    key: "T"
    value {
      type: DT_FLOAT
    }
  }
  attr {
    key: "_class"
    value {
      list {
        s: "loc:@FirstStageFeatureExtractor/InceptionV2/Conv2d_1a_7x7/BatchNorm/moving_mean"
      }
    }
  }
  attr {
    key: "use_locking"
    value {
      b: true
    }
  }
  attr {
    key: "validate_shape"
    value {
      b: true
    }
  }
}
node {
  name: "FirstStageFeatureExtractor/InceptionV2/Conv2d_1a_7x7/BatchNorm/moving_mean/read"
  op: "Identity"
  input: "FirstStageFeatureExtractor/InceptionV2/Conv2d_1a_7x7/BatchNorm/moving_mean"
  attr {
    key: "T"
    value {
      type: DT_FLOAT
    }
  }
  attr {
    key: "_class"
    value {
      list {
        s: "loc:@FirstStageFeatureExtractor/InceptionV2/Conv2d_1a_7x7/BatchNorm/moving_mean"
      }
    }
  }
}
node {
  name: "FirstStageFeatureExtractor/InceptionV2/Conv2d_1a_7x7/BatchNorm/moving_variance/Initializer/ones"
  op: "Const"
  attr {
    key: "_class"
    value {
      list {
        s: "loc:@FirstStageFeatureExtractor/InceptionV2/Conv2d_1a_7x7/BatchNorm/moving_variance"
      }
    }
  }
  attr {
    key: "dtype"
    value {
      type: DT_FLOAT
    }
  }
  attr {
    key: "value"
    value {
      tensor {
        dtype: DT_FLOAT
        tensor_shape {
          dim {
            size: 64
          }
        }
        float_val: 1.0
      }
    }
  }
}
node {
  name: "FirstStageFeatureExtractor/InceptionV2/Conv2d_1a_7x7/BatchNorm/moving_variance"
  op: "VariableV2"
  attr {
    key: "_class"
    value {
      list {
        s: "loc:@FirstStageFeatureExtractor/InceptionV2/Conv2d_1a_7x7/BatchNorm/moving_variance"
      }
    }
  }
  attr {
    key: "container"
    value {
      s: ""
    }
  }
  attr {
    key: "dtype"
    value {
      type: DT_FLOAT
    }
  }
  attr {
    key: "shape"
    value {
      shape {
        dim {
          size: 64
        }
      }
    }
  }
  attr {
    key: "shared_name"
    value {
      s: ""
    }
  }
}
node {
  name: "FirstStageFeatureExtractor/InceptionV2/Conv2d_1a_7x7/BatchNorm/moving_variance/Assign"
  op: "Assign"
  input: "FirstStageFeatureExtractor/InceptionV2/Conv2d_1a_7x7/BatchNorm/moving_variance"
  input: "FirstStageFeatureExtractor/InceptionV2/Conv2d_1a_7x7/BatchNorm/moving_variance/Initializer/ones"
  attr {
    key: "T"
    value {
      type: DT_FLOAT
    }
  }
  attr {
    key: "_class"
    value {
      list {
        s: "loc:@FirstStageFeatureExtractor/InceptionV2/Conv2d_1a_7x7/BatchNorm/moving_variance"
      }
    }
  }
  attr {
    key: "use_locking"
    value {
      b: true
    }
  }
  attr {
    key: "validate_shape"
    value {
      b: true
    }
  }
}
node {
  name: "FirstStageFeatureExtractor/InceptionV2/Conv2d_1a_7x7/BatchNorm/moving_variance/read"
  op: "Identity"
  input: "FirstStageFeatureExtractor/InceptionV2/Conv2d_1a_7x7/BatchNorm/moving_variance"
  attr {
    key: "T"
    value {
      type: DT_FLOAT
    }
  }
  attr {
    key: "_class"
    value {
      list {
        s: "loc:@FirstStageFeatureExtractor/InceptionV2/Conv2d_1a_7x7/BatchNorm/moving_variance"
      }
    }
  }
}
node {
  name: "FirstStageFeatureExtractor/InceptionV2/InceptionV2/Conv2d_1a_7x7/BatchNorm/FusedBatchNorm"
  op: "FusedBatchNorm"
  input: "FirstStageFeatureExtractor/InceptionV2/InceptionV2/Conv2d_1a_7x7/separable_conv2d"
  input: "FirstStageFeatureExtractor/InceptionV2/Conv2d_1a_7x7/BatchNorm/gamma/read"
  input: "FirstStageFeatureExtractor/InceptionV2/Conv2d_1a_7x7/BatchNorm/beta/read"
  input: "FirstStageFeatureExtractor/InceptionV2/Conv2d_1a_7x7/BatchNorm/moving_mean/read"
  input: "FirstStageFeatureExtractor/InceptionV2/Conv2d_1a_7x7/BatchNorm/moving_variance/read"
  attr {
    key: "T"
    value {
      type: DT_FLOAT
    }
  }
  attr {
    key: "data_format"
    value {
      s: "NHWC"
    }
  }
  attr {
    key: "epsilon"
    value {
      f: 0.0010000000474974513
    }
  }
  attr {
    key: "is_training"
    value {
      b: false
    }
  }
}
node {
  name: "FirstStageFeatureExtractor/InceptionV2/InceptionV2/Conv2d_1a_7x7/BatchNorm/Const"
  op: "Const"
  input: "^FirstStageFeatureExtractor/Assert/Assert"
  attr {
    key: "dtype"
    value {
      type: DT_FLOAT
    }
  }
  attr {
    key: "value"
    value {
      tensor {
        dtype: DT_FLOAT
        tensor_shape {
        }
        float_val: 0.9997000098228455
      }
    }
  }
}
node {
  name: "FirstStageFeatureExtractor/InceptionV2/InceptionV2/Conv2d_1a_7x7/Relu"
  op: "Relu"
  input: "FirstStageFeatureExtractor/InceptionV2/InceptionV2/Conv2d_1a_7x7/BatchNorm/FusedBatchNorm"
  attr {
    key: "T"
    value {
      type: DT_FLOAT
    }
  }
}
node {
  name: "FirstStageFeatureExtractor/InceptionV2/InceptionV2/MaxPool_2a_3x3/MaxPool"
  op: "MaxPool"
  input: "FirstStageFeatureExtractor/InceptionV2/InceptionV2/Conv2d_1a_7x7/Relu"
  attr {
    key: "T"
    value {
      type: DT_FLOAT
    }
  }
  attr {
    key: "data_format"
    value {
      s: "NHWC"
    }
  }
  attr {
    key: "ksize"
    value {
      list {
        i: 1
        i: 3
        i: 3
        i: 1
      }
    }
  }
  attr {
    key: "padding"
    value {
      s: "SAME"
    }
  }
  attr {
    key: "strides"
    value {
      list {
        i: 1
        i: 2
        i: 2
        i: 1
      }
    }
  }
}
node {
  name: "FirstStageFeatureExtractor/InceptionV2/Conv2d_2b_1x1/weights/Initializer/truncated_normal/shape"
  op: "Const"
  attr {
    key: "_class"
    value {
      list {
        s: "loc:@FirstStageFeatureExtractor/InceptionV2/Conv2d_2b_1x1/weights"
      }
    }
  }
  attr {
    key: "dtype"
    value {
      type: DT_INT32
    }
  }
  attr {
    key: "value"
    value {
      tensor {
        dtype: DT_INT32
        tensor_shape {
          dim {
            size: 4
          }
        }
        tensor_content: "\001\000\000\000\001\000\000\000@\000\000\000@\000\000\000"
      }
    }
  }
}
node {
  name: "FirstStageFeatureExtractor/InceptionV2/Conv2d_2b_1x1/weights/Initializer/truncated_normal/mean"
  op: "Const"
  attr {
    key: "_class"
    value {
      list {
        s: "loc:@FirstStageFeatureExtractor/InceptionV2/Conv2d_2b_1x1/weights"
      }
    }
  }
  attr {
    key: "dtype"
    value {
      type: DT_FLOAT
    }
  }
  attr {
    key: "value"
    value {
      tensor {
        dtype: DT_FLOAT
        tensor_shape {
        }
        float_val: 0.0
      }
    }
  }
}
node {
  name: "FirstStageFeatureExtractor/InceptionV2/Conv2d_2b_1x1/weights/Initializer/truncated_normal/stddev"
  op: "Const"
  attr {
    key: "_class"
    value {
      list {
        s: "loc:@FirstStageFeatureExtractor/InceptionV2/Conv2d_2b_1x1/weights"
      }
    }
  }
  attr {
    key: "dtype"
    value {
      type: DT_FLOAT
    }
  }
  attr {
    key: "value"
    value {
      tensor {
        dtype: DT_FLOAT
        tensor_shape {
        }
        float_val: 0.10000000149011612
      }
    }
  }
}
node {
  name: "FirstStageFeatureExtractor/InceptionV2/Conv2d_2b_1x1/weights/Initializer/truncated_normal/TruncatedNormal"
  op: "TruncatedNormal"
  input: "FirstStageFeatureExtractor/InceptionV2/Conv2d_2b_1x1/weights/Initializer/truncated_normal/shape"
  attr {
    key: "T"
    value {
      type: DT_INT32
    }
  }
  attr {
    key: "_class"
    value {
      list {
        s: "loc:@FirstStageFeatureExtractor/InceptionV2/Conv2d_2b_1x1/weights"
      }
    }
  }
  attr {
    key: "dtype"
    value {
      type: DT_FLOAT
    }
  }
  attr {
    key: "seed"
    value {
      i: 0
    }
  }
  attr {
    key: "seed2"
    value {
      i: 0
    }
  }
}
node {
  name: "FirstStageFeatureExtractor/InceptionV2/Conv2d_2b_1x1/weights/Initializer/truncated_normal/mul"
  op: "Mul"
  input: "FirstStageFeatureExtractor/InceptionV2/Conv2d_2b_1x1/weights/Initializer/truncated_normal/TruncatedNormal"
  input: "FirstStageFeatureExtractor/InceptionV2/Conv2d_2b_1x1/weights/Initializer/truncated_normal/stddev"
  attr {
    key: "T"
    value {
      type: DT_FLOAT
    }
  }
  attr {
    key: "_class"
    value {
      list {
        s: "loc:@FirstStageFeatureExtractor/InceptionV2/Conv2d_2b_1x1/weights"
      }
    }
  }
}
node {
  name: "FirstStageFeatureExtractor/InceptionV2/Conv2d_2b_1x1/weights/Initializer/truncated_normal"
  op: "Add"
  input: "FirstStageFeatureExtractor/InceptionV2/Conv2d_2b_1x1/weights/Initializer/truncated_normal/mul"
  input: "FirstStageFeatureExtractor/InceptionV2/Conv2d_2b_1x1/weights/Initializer/truncated_normal/mean"
  attr {
    key: "T"
    value {
      type: DT_FLOAT
    }
  }
  attr {
    key: "_class"
    value {
      list {
        s: "loc:@FirstStageFeatureExtractor/InceptionV2/Conv2d_2b_1x1/weights"
      }
    }
  }
}
node {
  name: "FirstStageFeatureExtractor/InceptionV2/Conv2d_2b_1x1/weights"
  op: "VariableV2"
  attr {
    key: "_class"
    value {
      list {
        s: "loc:@FirstStageFeatureExtractor/InceptionV2/Conv2d_2b_1x1/weights"
      }
    }
  }
  attr {
    key: "container"
    value {
      s: ""
    }
  }
  attr {
    key: "dtype"
    value {
      type: DT_FLOAT
    }
  }
  attr {
    key: "shape"
    value {
      shape {
        dim {
          size: 1
        }
        dim {
          size: 1
        }
        dim {
          size: 64
        }
        dim {
          size: 64
        }
      }
    }
  }
  attr {
    key: "shared_name"
    value {
      s: ""
    }
  }
}
node {
  name: "FirstStageFeatureExtractor/InceptionV2/Conv2d_2b_1x1/weights/Assign"
  op: "Assign"
  input: "FirstStageFeatureExtractor/InceptionV2/Conv2d_2b_1x1/weights"
  input: "FirstStageFeatureExtractor/InceptionV2/Conv2d_2b_1x1/weights/Initializer/truncated_normal"
  attr {
    key: "T"
    value {
      type: DT_FLOAT
    }
  }
  attr {
    key: "_class"
    value {
      list {
        s: "loc:@FirstStageFeatureExtractor/InceptionV2/Conv2d_2b_1x1/weights"
      }
    }
  }
  attr {
    key: "use_locking"
    value {
      b: true
    }
  }
  attr {
    key: "validate_shape"
    value {
      b: true
    }
  }
}
node {
  name: "FirstStageFeatureExtractor/InceptionV2/Conv2d_2b_1x1/weights/read"
  op: "Identity"
  input: "FirstStageFeatureExtractor/InceptionV2/Conv2d_2b_1x1/weights"
  attr {
    key: "T"
    value {
      type: DT_FLOAT
    }
  }
  attr {
    key: "_class"
    value {
      list {
        s: "loc:@FirstStageFeatureExtractor/InceptionV2/Conv2d_2b_1x1/weights"
      }
    }
  }
}
node {
  name: "FirstStageFeatureExtractor/InceptionV2/InceptionV2/Conv2d_2b_1x1/dilation_rate"
  op: "Const"
  input: "^FirstStageFeatureExtractor/Assert/Assert"
  attr {
    key: "dtype"
    value {
      type: DT_INT32
    }
  }
  attr {
    key: "value"
    value {
      tensor {
        dtype: DT_INT32
        tensor_shape {
          dim {
            size: 2
          }
        }
        tensor_content: "\001\000\000\000\001\000\000\000"
      }
    }
  }
}
node {
  name: "FirstStageFeatureExtractor/InceptionV2/InceptionV2/Conv2d_2b_1x1/Conv2D"
  op: "Conv2D"
  input: "FirstStageFeatureExtractor/InceptionV2/InceptionV2/MaxPool_2a_3x3/MaxPool"
  input: "FirstStageFeatureExtractor/InceptionV2/Conv2d_2b_1x1/weights/read"
  attr {
    key: "T"
    value {
      type: DT_FLOAT
    }
  }
  attr {
    key: "data_format"
    value {
      s: "NHWC"
    }
  }
  attr {
    key: "dilations"
    value {
      list {
        i: 1
        i: 1
        i: 1
        i: 1
      }
    }
  }
  attr {
    key: "padding"
    value {
      s: "SAME"
    }
  }
  attr {
    key: "strides"
    value {
      list {
        i: 1
        i: 1
        i: 1
        i: 1
      }
    }
  }
  attr {
    key: "use_cudnn_on_gpu"
    value {
      b: true
    }
  }
}
node {
  name: "FirstStageFeatureExtractor/InceptionV2/Conv2d_2b_1x1/BatchNorm/gamma/Initializer/ones"
  op: "Const"
  attr {
    key: "_class"
    value {
      list {
        s: "loc:@FirstStageFeatureExtractor/InceptionV2/Conv2d_2b_1x1/BatchNorm/gamma"
      }
    }
  }
  attr {
    key: "dtype"
    value {
      type: DT_FLOAT
    }
  }
  attr {
    key: "value"
    value {
      tensor {
        dtype: DT_FLOAT
        tensor_shape {
          dim {
            size: 64
          }
        }
        float_val: 1.0
      }
    }
  }
}
node {
  name: "FirstStageFeatureExtractor/InceptionV2/Conv2d_2b_1x1/BatchNorm/gamma"
  op: "VariableV2"
  attr {
    key: "_class"
    value {
      list {
        s: "loc:@FirstStageFeatureExtractor/InceptionV2/Conv2d_2b_1x1/BatchNorm/gamma"
      }
    }
  }
  attr {
    key: "container"
    value {
      s: ""
    }
  }
  attr {
    key: "dtype"
    value {
      type: DT_FLOAT
    }
  }
  attr {
    key: "shape"
    value {
      shape {
        dim {
          size: 64
        }
      }
    }
  }
  attr {
    key: "shared_name"
    value {
      s: ""
    }
  }
}
node {
  name: "FirstStageFeatureExtractor/InceptionV2/Conv2d_2b_1x1/BatchNorm/gamma/Assign"
  op: "Assign"
  input: "FirstStageFeatureExtractor/InceptionV2/Conv2d_2b_1x1/BatchNorm/gamma"
  input: "FirstStageFeatureExtractor/InceptionV2/Conv2d_2b_1x1/BatchNorm/gamma/Initializer/ones"
  attr {
    key: "T"
    value {
      type: DT_FLOAT
    }
  }
  attr {
    key: "_class"
    value {
      list {
        s: "loc:@FirstStageFeatureExtractor/InceptionV2/Conv2d_2b_1x1/BatchNorm/gamma"
      }
    }
  }
  attr {
    key: "use_locking"
    value {
      b: true
    }
  }
  attr {
    key: "validate_shape"
    value {
      b: true
    }
  }
}
node {
  name: "FirstStageFeatureExtractor/InceptionV2/Conv2d_2b_1x1/BatchNorm/gamma/read"
  op: "Identity"
  input: "FirstStageFeatureExtractor/InceptionV2/Conv2d_2b_1x1/BatchNorm/gamma"
  attr {
    key: "T"
    value {
      type: DT_FLOAT
    }
  }
  attr {
    key: "_class"
    value {
      list {
        s: "loc:@FirstStageFeatureExtractor/InceptionV2/Conv2d_2b_1x1/BatchNorm/gamma"
      }
    }
  }
}
node {
  name: "FirstStageFeatureExtractor/InceptionV2/Conv2d_2b_1x1/BatchNorm/beta/Initializer/zeros"
  op: "Const"
  attr {
    key: "_class"
    value {
      list {
        s: "loc:@FirstStageFeatureExtractor/InceptionV2/Conv2d_2b_1x1/BatchNorm/beta"
      }
    }
  }
  attr {
    key: "dtype"
    value {
      type: DT_FLOAT
    }
  }
  attr {
    key: "value"
    value {
      tensor {
        dtype: DT_FLOAT
        tensor_shape {
          dim {
            size: 64
          }
        }
        float_val: 0.0
      }
    }
  }
}
node {
  name: "FirstStageFeatureExtractor/InceptionV2/Conv2d_2b_1x1/BatchNorm/beta"
  op: "VariableV2"
  attr {
    key: "_class"
    value {
      list {
        s: "loc:@FirstStageFeatureExtractor/InceptionV2/Conv2d_2b_1x1/BatchNorm/beta"
      }
    }
  }
  attr {
    key: "container"
    value {
      s: ""
    }
  }
  attr {
    key: "dtype"
    value {
      type: DT_FLOAT
    }
  }
  attr {
    key: "shape"
    value {
      shape {
        dim {
          size: 64
        }
      }
    }
  }
  attr {
    key: "shared_name"
    value {
      s: ""
    }
  }
}
node {
  name: "FirstStageFeatureExtractor/InceptionV2/Conv2d_2b_1x1/BatchNorm/beta/Assign"
  op: "Assign"
  input: "FirstStageFeatureExtractor/InceptionV2/Conv2d_2b_1x1/BatchNorm/beta"
  input: "FirstStageFeatureExtractor/InceptionV2/Conv2d_2b_1x1/BatchNorm/beta/Initializer/zeros"
  attr {
    key: "T"
    value {
      type: DT_FLOAT
    }
  }
  attr {
    key: "_class"
    value {
      list {
        s: "loc:@FirstStageFeatureExtractor/InceptionV2/Conv2d_2b_1x1/BatchNorm/beta"
      }
    }
  }
  attr {
    key: "use_locking"
    value {
      b: true
    }
  }
  attr {
    key: "validate_shape"
    value {
      b: true
    }
  }
}
node {
  name: "FirstStageFeatureExtractor/InceptionV2/Conv2d_2b_1x1/BatchNorm/beta/read"
  op: "Identity"
  input: "FirstStageFeatureExtractor/InceptionV2/Conv2d_2b_1x1/BatchNorm/beta"
  attr {
    key: "T"
    value {
      type: DT_FLOAT
    }
  }
  attr {
    key: "_class"
    value {
      list {
        s: "loc:@FirstStageFeatureExtractor/InceptionV2/Conv2d_2b_1x1/BatchNorm/beta"
      }
    }
  }
}
node {
  name: "FirstStageFeatureExtractor/InceptionV2/Conv2d_2b_1x1/BatchNorm/moving_mean/Initializer/zeros"
  op: "Const"
  attr {
    key: "_class"
    value {
      list {
        s: "loc:@FirstStageFeatureExtractor/InceptionV2/Conv2d_2b_1x1/BatchNorm/moving_mean"
      }
    }
  }
  attr {
    key: "dtype"
    value {
      type: DT_FLOAT
    }
  }
  attr {
    key: "value"
    value {
      tensor {
        dtype: DT_FLOAT
        tensor_shape {
          dim {
            size: 64
          }
        }
        float_val: 0.0
      }
    }
  }
}
node {
  name: "FirstStageFeatureExtractor/InceptionV2/Conv2d_2b_1x1/BatchNorm/moving_mean"
  op: "VariableV2"
  attr {
    key: "_class"
    value {
      list {
        s: "loc:@FirstStageFeatureExtractor/InceptionV2/Conv2d_2b_1x1/BatchNorm/moving_mean"
      }
    }
  }
  attr {
    key: "container"
    value {
      s: ""
    }
  }
  attr {
    key: "dtype"
    value {
      type: DT_FLOAT
    }
  }
  attr {
    key: "shape"
    value {
      shape {
        dim {
          size: 64
        }
      }
    }
  }
  attr {
    key: "shared_name"
    value {
      s: ""
    }
  }
}
node {
  name: "FirstStageFeatureExtractor/InceptionV2/Conv2d_2b_1x1/BatchNorm/moving_mean/Assign"
  op: "Assign"
  input: "FirstStageFeatureExtractor/InceptionV2/Conv2d_2b_1x1/BatchNorm/moving_mean"
  input: "FirstStageFeatureExtractor/InceptionV2/Conv2d_2b_1x1/BatchNorm/moving_mean/Initializer/zeros"
  attr {
    key: "T"
    value {
      type: DT_FLOAT
    }
  }
  attr {
    key: "_class"
    value {
      list {
        s: "loc:@FirstStageFeatureExtractor/InceptionV2/Conv2d_2b_1x1/BatchNorm/moving_mean"
      }
    }
  }
  attr {
    key: "use_locking"
    value {
      b: true
    }
  }
  attr {
    key: "validate_shape"
    value {
      b: true
    }
  }
}
node {
  name: "FirstStageFeatureExtractor/InceptionV2/Conv2d_2b_1x1/BatchNorm/moving_mean/read"
  op: "Identity"
  input: "FirstStageFeatureExtractor/InceptionV2/Conv2d_2b_1x1/BatchNorm/moving_mean"
  attr {
    key: "T"
    value {
      type: DT_FLOAT
    }
  }
  attr {
    key: "_class"
    value {
      list {
        s: "loc:@FirstStageFeatureExtractor/InceptionV2/Conv2d_2b_1x1/BatchNorm/moving_mean"
      }
    }
  }
}
node {
  name: "FirstStageFeatureExtractor/InceptionV2/Conv2d_2b_1x1/BatchNorm/moving_variance/Initializer/ones"
  op: "Const"
  attr {
    key: "_class"
    value {
      list {
        s: "loc:@FirstStageFeatureExtractor/InceptionV2/Conv2d_2b_1x1/BatchNorm/moving_variance"
      }
    }
  }
  attr {
    key: "dtype"
    value {
      type: DT_FLOAT
    }
  }
  attr {
    key: "value"
    value {
      tensor {
        dtype: DT_FLOAT
        tensor_shape {
          dim {
            size: 64
          }
        }
        float_val: 1.0
      }
    }
  }
}
node {
  name: "FirstStageFeatureExtractor/InceptionV2/Conv2d_2b_1x1/BatchNorm/moving_variance"
  op: "VariableV2"
  attr {
    key: "_class"
    value {
      list {
        s: "loc:@FirstStageFeatureExtractor/InceptionV2/Conv2d_2b_1x1/BatchNorm/moving_variance"
      }
    }
  }
  attr {
    key: "container"
    value {
      s: ""
    }
  }
  attr {
    key: "dtype"
    value {
      type: DT_FLOAT
    }
  }
  attr {
    key: "shape"
    value {
      shape {
        dim {
          size: 64
        }
      }
    }
  }
  attr {
    key: "shared_name"
    value {
      s: ""
    }
  }
}
node {
  name: "FirstStageFeatureExtractor/InceptionV2/Conv2d_2b_1x1/BatchNorm/moving_variance/Assign"
  op: "Assign"
  input: "FirstStageFeatureExtractor/InceptionV2/Conv2d_2b_1x1/BatchNorm/moving_variance"
  input: "FirstStageFeatureExtractor/InceptionV2/Conv2d_2b_1x1/BatchNorm/moving_variance/Initializer/ones"
  attr {
    key: "T"
    value {
      type: DT_FLOAT
    }
  }
  attr {
    key: "_class"
    value {
      list {
        s: "loc:@FirstStageFeatureExtractor/InceptionV2/Conv2d_2b_1x1/BatchNorm/moving_variance"
      }
    }
  }
  attr {
    key: "use_locking"
    value {
      b: true
    }
  }
  attr {
    key: "validate_shape"
    value {
      b: true
    }
  }
}
node {
  name: "FirstStageFeatureExtractor/InceptionV2/Conv2d_2b_1x1/BatchNorm/moving_variance/read"
  op: "Identity"
  input: "FirstStageFeatureExtractor/InceptionV2/Conv2d_2b_1x1/BatchNorm/moving_variance"
  attr {
    key: "T"
    value {
      type: DT_FLOAT
    }
  }
  attr {
    key: "_class"
    value {
      list {
        s: "loc:@FirstStageFeatureExtractor/InceptionV2/Conv2d_2b_1x1/BatchNorm/moving_variance"
      }
    }
  }
}
node {
  name: "FirstStageFeatureExtractor/InceptionV2/InceptionV2/Conv2d_2b_1x1/BatchNorm/FusedBatchNorm"
  op: "FusedBatchNorm"
  input: "FirstStageFeatureExtractor/InceptionV2/InceptionV2/Conv2d_2b_1x1/Conv2D"
  input: "FirstStageFeatureExtractor/InceptionV2/Conv2d_2b_1x1/BatchNorm/gamma/read"
  input: "FirstStageFeatureExtractor/InceptionV2/Conv2d_2b_1x1/BatchNorm/beta/read"
  input: "FirstStageFeatureExtractor/InceptionV2/Conv2d_2b_1x1/BatchNorm/moving_mean/read"
  input: "FirstStageFeatureExtractor/InceptionV2/Conv2d_2b_1x1/BatchNorm/moving_variance/read"
  attr {
    key: "T"
    value {
      type: DT_FLOAT
    }
  }
  attr {
    key: "data_format"
    value {
      s: "NHWC"
    }
  }
  attr {
    key: "epsilon"
    value {
      f: 0.0010000000474974513
    }
  }
  attr {
    key: "is_training"
    value {
      b: false
    }
  }
}
node {
  name: "FirstStageFeatureExtractor/InceptionV2/InceptionV2/Conv2d_2b_1x1/BatchNorm/Const"
  op: "Const"
  input: "^FirstStageFeatureExtractor/Assert/Assert"
  attr {
    key: "dtype"
    value {
      type: DT_FLOAT
    }
  }
  attr {
    key: "value"
    value {
      tensor {
        dtype: DT_FLOAT
        tensor_shape {
        }
        float_val: 0.9997000098228455
      }
    }
  }
}
node {
  name: "FirstStageFeatureExtractor/InceptionV2/InceptionV2/Conv2d_2b_1x1/Relu"
  op: "Relu"
  input: "FirstStageFeatureExtractor/InceptionV2/InceptionV2/Conv2d_2b_1x1/BatchNorm/FusedBatchNorm"
  attr {
    key: "T"
    value {
      type: DT_FLOAT
    }
  }
}
node {
  name: "FirstStageFeatureExtractor/InceptionV2/Conv2d_2c_3x3/weights/Initializer/random_uniform/shape"
  op: "Const"
  attr {
    key: "_class"
    value {
      list {
        s: "loc:@FirstStageFeatureExtractor/InceptionV2/Conv2d_2c_3x3/weights"
      }
    }
  }
  attr {
    key: "dtype"
    value {
      type: DT_INT32
    }
  }
  attr {
    key: "value"
    value {
      tensor {
        dtype: DT_INT32
        tensor_shape {
          dim {
            size: 4
          }
        }
        tensor_content: "\003\000\000\000\003\000\000\000@\000\000\000\300\000\000\000"
      }
    }
  }
}
node {
  name: "FirstStageFeatureExtractor/InceptionV2/Conv2d_2c_3x3/weights/Initializer/random_uniform/min"
  op: "Const"
  attr {
    key: "_class"
    value {
      list {
        s: "loc:@FirstStageFeatureExtractor/InceptionV2/Conv2d_2c_3x3/weights"
      }
    }
  }
  attr {
    key: "dtype"
    value {
      type: DT_FLOAT
    }
  }
  attr {
    key: "value"
    value {
      tensor {
        dtype: DT_FLOAT
        tensor_shape {
        }
        float_val: -0.05103103816509247
      }
    }
  }
}
node {
  name: "FirstStageFeatureExtractor/InceptionV2/Conv2d_2c_3x3/weights/Initializer/random_uniform/max"
  op: "Const"
  attr {
    key: "_class"
    value {
      list {
        s: "loc:@FirstStageFeatureExtractor/InceptionV2/Conv2d_2c_3x3/weights"
      }
    }
  }
  attr {
    key: "dtype"
    value {
      type: DT_FLOAT
    }
  }
  attr {
    key: "value"
    value {
      tensor {
        dtype: DT_FLOAT
        tensor_shape {
        }
        float_val: 0.05103103816509247
      }
    }
  }
}
node {
  name: "FirstStageFeatureExtractor/InceptionV2/Conv2d_2c_3x3/weights/Initializer/random_uniform/RandomUniform"
  op: "RandomUniform"
  input: "FirstStageFeatureExtractor/InceptionV2/Conv2d_2c_3x3/weights/Initializer/random_uniform/shape"
  attr {
    key: "T"
    value {
      type: DT_INT32
    }
  }
  attr {
    key: "_class"
    value {
      list {
        s: "loc:@FirstStageFeatureExtractor/InceptionV2/Conv2d_2c_3x3/weights"
      }
    }
  }
  attr {
    key: "dtype"
    value {
      type: DT_FLOAT
    }
  }
  attr {
    key: "seed"
    value {
      i: 0
    }
  }
  attr {
    key: "seed2"
    value {
      i: 0
    }
  }
}
node {
  name: "FirstStageFeatureExtractor/InceptionV2/Conv2d_2c_3x3/weights/Initializer/random_uniform/sub"
  op: "Sub"
  input: "FirstStageFeatureExtractor/InceptionV2/Conv2d_2c_3x3/weights/Initializer/random_uniform/max"
  input: "FirstStageFeatureExtractor/InceptionV2/Conv2d_2c_3x3/weights/Initializer/random_uniform/min"
  attr {
    key: "T"
    value {
      type: DT_FLOAT
    }
  }
  attr {
    key: "_class"
    value {
      list {
        s: "loc:@FirstStageFeatureExtractor/InceptionV2/Conv2d_2c_3x3/weights"
      }
    }
  }
}
node {
  name: "FirstStageFeatureExtractor/InceptionV2/Conv2d_2c_3x3/weights/Initializer/random_uniform/mul"
  op: "Mul"
  input: "FirstStageFeatureExtractor/InceptionV2/Conv2d_2c_3x3/weights/Initializer/random_uniform/RandomUniform"
  input: "FirstStageFeatureExtractor/InceptionV2/Conv2d_2c_3x3/weights/Initializer/random_uniform/sub"
  attr {
    key: "T"
    value {
      type: DT_FLOAT
    }
  }
  attr {
    key: "_class"
    value {
      list {
        s: "loc:@FirstStageFeatureExtractor/InceptionV2/Conv2d_2c_3x3/weights"
      }
    }
  }
}
node {
  name: "FirstStageFeatureExtractor/InceptionV2/Conv2d_2c_3x3/weights/Initializer/random_uniform"
  op: "Add"
  input: "FirstStageFeatureExtractor/InceptionV2/Conv2d_2c_3x3/weights/Initializer/random_uniform/mul"
  input: "FirstStageFeatureExtractor/InceptionV2/Conv2d_2c_3x3/weights/Initializer/random_uniform/min"
  attr {
    key: "T"
    value {
      type: DT_FLOAT
    }
  }
  attr {
    key: "_class"
    value {
      list {
        s: "loc:@FirstStageFeatureExtractor/InceptionV2/Conv2d_2c_3x3/weights"
      }
    }
  }
}
node {
  name: "FirstStageFeatureExtractor/InceptionV2/Conv2d_2c_3x3/weights"
  op: "VariableV2"
  attr {
    key: "_class"
    value {
      list {
        s: "loc:@FirstStageFeatureExtractor/InceptionV2/Conv2d_2c_3x3/weights"
      }
    }
  }
  attr {
    key: "container"
    value {
      s: ""
    }
  }
  attr {
    key: "dtype"
    value {
      type: DT_FLOAT
    }
  }
  attr {
    key: "shape"
    value {
      shape {
        dim {
          size: 3
        }
        dim {
          size: 3
        }
        dim {
          size: 64
        }
        dim {
          size: 192
        }
      }
    }
  }
  attr {
    key: "shared_name"
    value {
      s: ""
    }
  }
}
node {
  name: "FirstStageFeatureExtractor/InceptionV2/Conv2d_2c_3x3/weights/Assign"
  op: "Assign"
  input: "FirstStageFeatureExtractor/InceptionV2/Conv2d_2c_3x3/weights"
  input: "FirstStageFeatureExtractor/InceptionV2/Conv2d_2c_3x3/weights/Initializer/random_uniform"
  attr {
    key: "T"
    value {
      type: DT_FLOAT
    }
  }
  attr {
    key: "_class"
    value {
      list {
        s: "loc:@FirstStageFeatureExtractor/InceptionV2/Conv2d_2c_3x3/weights"
      }
    }
  }
  attr {
    key: "use_locking"
    value {
      b: true
    }
  }
  attr {
    key: "validate_shape"
    value {
      b: true
    }
  }
}
node {
  name: "FirstStageFeatureExtractor/InceptionV2/Conv2d_2c_3x3/weights/read"
  op: "Identity"
  input: "FirstStageFeatureExtractor/InceptionV2/Conv2d_2c_3x3/weights"
  attr {
    key: "T"
    value {
      type: DT_FLOAT
    }
  }
  attr {
    key: "_class"
    value {
      list {
        s: "loc:@FirstStageFeatureExtractor/InceptionV2/Conv2d_2c_3x3/weights"
      }
    }
  }
}
node {
  name: "FirstStageFeatureExtractor/InceptionV2/InceptionV2/Conv2d_2c_3x3/dilation_rate"
  op: "Const"
  input: "^FirstStageFeatureExtractor/Assert/Assert"
  attr {
    key: "dtype"
    value {
      type: DT_INT32
    }
  }
  attr {
    key: "value"
    value {
      tensor {
        dtype: DT_INT32
        tensor_shape {
          dim {
            size: 2
          }
        }
        tensor_content: "\001\000\000\000\001\000\000\000"
      }
    }
  }
}
node {
  name: "FirstStageFeatureExtractor/InceptionV2/InceptionV2/Conv2d_2c_3x3/Conv2D"
  op: "Conv2D"
  input: "FirstStageFeatureExtractor/InceptionV2/InceptionV2/Conv2d_2b_1x1/Relu"
  input: "FirstStageFeatureExtractor/InceptionV2/Conv2d_2c_3x3/weights/read"
  attr {
    key: "T"
    value {
      type: DT_FLOAT
    }
  }
  attr {
    key: "data_format"
    value {
      s: "NHWC"
    }
  }
  attr {
    key: "dilations"
    value {
      list {
        i: 1
        i: 1
        i: 1
        i: 1
      }
    }
  }
  attr {
    key: "padding"
    value {
      s: "SAME"
    }
  }
  attr {
    key: "strides"
    value {
      list {
        i: 1
        i: 1
        i: 1
        i: 1
      }
    }
  }
  attr {
    key: "use_cudnn_on_gpu"
    value {
      b: true
    }
  }
}
node {
  name: "FirstStageFeatureExtractor/InceptionV2/Conv2d_2c_3x3/BatchNorm/gamma/Initializer/ones"
  op: "Const"
  attr {
    key: "_class"
    value {
      list {
        s: "loc:@FirstStageFeatureExtractor/InceptionV2/Conv2d_2c_3x3/BatchNorm/gamma"
      }
    }
  }
  attr {
    key: "dtype"
    value {
      type: DT_FLOAT
    }
  }
  attr {
    key: "value"
    value {
      tensor {
        dtype: DT_FLOAT
        tensor_shape {
          dim {
            size: 192
          }
        }
        float_val: 1.0
      }
    }
  }
}
node {
  name: "FirstStageFeatureExtractor/InceptionV2/Conv2d_2c_3x3/BatchNorm/gamma"
  op: "VariableV2"
  attr {
    key: "_class"
    value {
      list {
        s: "loc:@FirstStageFeatureExtractor/InceptionV2/Conv2d_2c_3x3/BatchNorm/gamma"
      }
    }
  }
  attr {
    key: "container"
    value {
      s: ""
    }
  }
  attr {
    key: "dtype"
    value {
      type: DT_FLOAT
    }
  }
  attr {
    key: "shape"
    value {
      shape {
        dim {
          size: 192
        }
      }
    }
  }
  attr {
    key: "shared_name"
    value {
      s: ""
    }
  }
}
node {
  name: "FirstStageFeatureExtractor/InceptionV2/Conv2d_2c_3x3/BatchNorm/gamma/Assign"
  op: "Assign"
  input: "FirstStageFeatureExtractor/InceptionV2/Conv2d_2c_3x3/BatchNorm/gamma"
  input: "FirstStageFeatureExtractor/InceptionV2/Conv2d_2c_3x3/BatchNorm/gamma/Initializer/ones"
  attr {
    key: "T"
    value {
      type: DT_FLOAT
    }
  }
  attr {
    key: "_class"
    value {
      list {
        s: "loc:@FirstStageFeatureExtractor/InceptionV2/Conv2d_2c_3x3/BatchNorm/gamma"
      }
    }
  }
  attr {
    key: "use_locking"
    value {
      b: true
    }
  }
  attr {
    key: "validate_shape"
    value {
      b: true
    }
  }
}
node {
  name: "FirstStageFeatureExtractor/InceptionV2/Conv2d_2c_3x3/BatchNorm/gamma/read"
  op: "Identity"
  input: "FirstStageFeatureExtractor/InceptionV2/Conv2d_2c_3x3/BatchNorm/gamma"
  attr {
    key: "T"
    value {
      type: DT_FLOAT
    }
  }
  attr {
    key: "_class"
    value {
      list {
        s: "loc:@FirstStageFeatureExtractor/InceptionV2/Conv2d_2c_3x3/BatchNorm/gamma"
      }
    }
  }
}
node {
  name: "FirstStageFeatureExtractor/InceptionV2/Conv2d_2c_3x3/BatchNorm/beta/Initializer/zeros"
  op: "Const"
  attr {
    key: "_class"
    value {
      list {
        s: "loc:@FirstStageFeatureExtractor/InceptionV2/Conv2d_2c_3x3/BatchNorm/beta"
      }
    }
  }
  attr {
    key: "dtype"
    value {
      type: DT_FLOAT
    }
  }
  attr {
    key: "value"
    value {
      tensor {
        dtype: DT_FLOAT
        tensor_shape {
          dim {
            size: 192
          }
        }
        float_val: 0.0
      }
    }
  }
}
node {
  name: "FirstStageFeatureExtractor/InceptionV2/Conv2d_2c_3x3/BatchNorm/beta"
  op: "VariableV2"
  attr {
    key: "_class"
    value {
      list {
        s: "loc:@FirstStageFeatureExtractor/InceptionV2/Conv2d_2c_3x3/BatchNorm/beta"
      }
    }
  }
  attr {
    key: "container"
    value {
      s: ""
    }
  }
  attr {
    key: "dtype"
    value {
      type: DT_FLOAT
    }
  }
  attr {
    key: "shape"
    value {
      shape {
        dim {
          size: 192
        }
      }
    }
  }
  attr {
    key: "shared_name"
    value {
      s: ""
    }
  }
}
node {
  name: "FirstStageFeatureExtractor/InceptionV2/Conv2d_2c_3x3/BatchNorm/beta/Assign"
  op: "Assign"
  input: "FirstStageFeatureExtractor/InceptionV2/Conv2d_2c_3x3/BatchNorm/beta"
  input: "FirstStageFeatureExtractor/InceptionV2/Conv2d_2c_3x3/BatchNorm/beta/Initializer/zeros"
  attr {
    key: "T"
    value {
      type: DT_FLOAT
    }
  }
  attr {
    key: "_class"
    value {
      list {
        s: "loc:@FirstStageFeatureExtractor/InceptionV2/Conv2d_2c_3x3/BatchNorm/beta"
      }
    }
  }
  attr {
    key: "use_locking"
    value {
      b: true
    }
  }
  attr {
    key: "validate_shape"
    value {
      b: true
    }
  }
}
node {
  name: "FirstStageFeatureExtractor/InceptionV2/Conv2d_2c_3x3/BatchNorm/beta/read"
  op: "Identity"
  input: "FirstStageFeatureExtractor/InceptionV2/Conv2d_2c_3x3/BatchNorm/beta"
  attr {
    key: "T"
    value {
      type: DT_FLOAT
    }
  }
  attr {
    key: "_class"
    value {
      list {
        s: "loc:@FirstStageFeatureExtractor/InceptionV2/Conv2d_2c_3x3/BatchNorm/beta"
      }
    }
  }
}
node {
  name: "FirstStageFeatureExtractor/InceptionV2/Conv2d_2c_3x3/BatchNorm/moving_mean/Initializer/zeros"
  op: "Const"
  attr {
    key: "_class"
    value {
      list {
        s: "loc:@FirstStageFeatureExtractor/InceptionV2/Conv2d_2c_3x3/BatchNorm/moving_mean"
      }
    }
  }
  attr {
    key: "dtype"
    value {
      type: DT_FLOAT
    }
  }
  attr {
    key: "value"
    value {
      tensor {
        dtype: DT_FLOAT
        tensor_shape {
          dim {
            size: 192
          }
        }
        float_val: 0.0
      }
    }
  }
}
node {
  name: "FirstStageFeatureExtractor/InceptionV2/Conv2d_2c_3x3/BatchNorm/moving_mean"
  op: "VariableV2"
  attr {
    key: "_class"
    value {
      list {
        s: "loc:@FirstStageFeatureExtractor/InceptionV2/Conv2d_2c_3x3/BatchNorm/moving_mean"
      }
    }
  }
  attr {
    key: "container"
    value {
      s: ""
    }
  }
  attr {
    key: "dtype"
    value {
      type: DT_FLOAT
    }
  }
  attr {
    key: "shape"
    value {
      shape {
        dim {
          size: 192
        }
      }
    }
  }
  attr {
    key: "shared_name"
    value {
      s: ""
    }
  }
}
node {
  name: "FirstStageFeatureExtractor/InceptionV2/Conv2d_2c_3x3/BatchNorm/moving_mean/Assign"
  op: "Assign"
  input: "FirstStageFeatureExtractor/InceptionV2/Conv2d_2c_3x3/BatchNorm/moving_mean"
  input: "FirstStageFeatureExtractor/InceptionV2/Conv2d_2c_3x3/BatchNorm/moving_mean/Initializer/zeros"
  attr {
    key: "T"
    value {
      type: DT_FLOAT
    }
  }
  attr {
    key: "_class"
    value {
      list {
        s: "loc:@FirstStageFeatureExtractor/InceptionV2/Conv2d_2c_3x3/BatchNorm/moving_mean"
      }
    }
  }
  attr {
    key: "use_locking"
    value {
      b: true
    }
  }
  attr {
    key: "validate_shape"
    value {
      b: true
    }
  }
}
node {
  name: "FirstStageFeatureExtractor/InceptionV2/Conv2d_2c_3x3/BatchNorm/moving_mean/read"
  op: "Identity"
  input: "FirstStageFeatureExtractor/InceptionV2/Conv2d_2c_3x3/BatchNorm/moving_mean"
  attr {
    key: "T"
    value {
      type: DT_FLOAT
    }
  }
  attr {
    key: "_class"
    value {
      list {
        s: "loc:@FirstStageFeatureExtractor/InceptionV2/Conv2d_2c_3x3/BatchNorm/moving_mean"
      }
    }
  }
}
node {
  name: "FirstStageFeatureExtractor/InceptionV2/Conv2d_2c_3x3/BatchNorm/moving_variance/Initializer/ones"
  op: "Const"
  attr {
    key: "_class"
    value {
      list {
        s: "loc:@FirstStageFeatureExtractor/InceptionV2/Conv2d_2c_3x3/BatchNorm/moving_variance"
      }
    }
  }
  attr {
    key: "dtype"
    value {
      type: DT_FLOAT
    }
  }
  attr {
    key: "value"
    value {
      tensor {
        dtype: DT_FLOAT
        tensor_shape {
          dim {
            size: 192
          }
        }
        float_val: 1.0
      }
    }
  }
}
node {
  name: "FirstStageFeatureExtractor/InceptionV2/Conv2d_2c_3x3/BatchNorm/moving_variance"
  op: "VariableV2"
  attr {
    key: "_class"
    value {
      list {
        s: "loc:@FirstStageFeatureExtractor/InceptionV2/Conv2d_2c_3x3/BatchNorm/moving_variance"
      }
    }
  }
  attr {
    key: "container"
    value {
      s: ""
    }
  }
  attr {
    key: "dtype"
    value {
      type: DT_FLOAT
    }
  }
  attr {
    key: "shape"
    value {
      shape {
        dim {
          size: 192
        }
      }
    }
  }
  attr {
    key: "shared_name"
    value {
      s: ""
    }
  }
}
node {
  name: "FirstStageFeatureExtractor/InceptionV2/Conv2d_2c_3x3/BatchNorm/moving_variance/Assign"
  op: "Assign"
  input: "FirstStageFeatureExtractor/InceptionV2/Conv2d_2c_3x3/BatchNorm/moving_variance"
  input: "FirstStageFeatureExtractor/InceptionV2/Conv2d_2c_3x3/BatchNorm/moving_variance/Initializer/ones"
  attr {
    key: "T"
    value {
      type: DT_FLOAT
    }
  }
  attr {
    key: "_class"
    value {
      list {
        s: "loc:@FirstStageFeatureExtractor/InceptionV2/Conv2d_2c_3x3/BatchNorm/moving_variance"
      }
    }
  }
  attr {
    key: "use_locking"
    value {
      b: true
    }
  }
  attr {
    key: "validate_shape"
    value {
      b: true
    }
  }
}
node {
  name: "FirstStageFeatureExtractor/InceptionV2/Conv2d_2c_3x3/BatchNorm/moving_variance/read"
  op: "Identity"
  input: "FirstStageFeatureExtractor/InceptionV2/Conv2d_2c_3x3/BatchNorm/moving_variance"
  attr {
    key: "T"
    value {
      type: DT_FLOAT
    }
  }
  attr {
    key: "_class"
    value {
      list {
        s: "loc:@FirstStageFeatureExtractor/InceptionV2/Conv2d_2c_3x3/BatchNorm/moving_variance"
      }
    }
  }
}
node {
  name: "FirstStageFeatureExtractor/InceptionV2/InceptionV2/Conv2d_2c_3x3/BatchNorm/FusedBatchNorm"
  op: "FusedBatchNorm"
  input: "FirstStageFeatureExtractor/InceptionV2/InceptionV2/Conv2d_2c_3x3/Conv2D"
  input: "FirstStageFeatureExtractor/InceptionV2/Conv2d_2c_3x3/BatchNorm/gamma/read"
  input: "FirstStageFeatureExtractor/InceptionV2/Conv2d_2c_3x3/BatchNorm/beta/read"
  input: "FirstStageFeatureExtractor/InceptionV2/Conv2d_2c_3x3/BatchNorm/moving_mean/read"
  input: "FirstStageFeatureExtractor/InceptionV2/Conv2d_2c_3x3/BatchNorm/moving_variance/read"
  attr {
    key: "T"
    value {
      type: DT_FLOAT
    }
  }
  attr {
    key: "data_format"
    value {
      s: "NHWC"
    }
  }
  attr {
    key: "epsilon"
    value {
      f: 0.0010000000474974513
    }
  }
  attr {
    key: "is_training"
    value {
      b: false
    }
  }
}
node {
  name: "FirstStageFeatureExtractor/InceptionV2/InceptionV2/Conv2d_2c_3x3/BatchNorm/Const"
  op: "Const"
  input: "^FirstStageFeatureExtractor/Assert/Assert"
  attr {
    key: "dtype"
    value {
      type: DT_FLOAT
    }
  }
  attr {
    key: "value"
    value {
      tensor {
        dtype: DT_FLOAT
        tensor_shape {
        }
        float_val: 0.9997000098228455
      }
    }
  }
}
node {
  name: "FirstStageFeatureExtractor/InceptionV2/InceptionV2/Conv2d_2c_3x3/Relu"
  op: "Relu"
  input: "FirstStageFeatureExtractor/InceptionV2/InceptionV2/Conv2d_2c_3x3/BatchNorm/FusedBatchNorm"
  attr {
    key: "T"
    value {
      type: DT_FLOAT
    }
  }
}
node {
  name: "FirstStageFeatureExtractor/InceptionV2/InceptionV2/MaxPool_3a_3x3/MaxPool"
  op: "MaxPool"
  input: "FirstStageFeatureExtractor/InceptionV2/InceptionV2/Conv2d_2c_3x3/Relu"
  attr {
    key: "T"
    value {
      type: DT_FLOAT
    }
  }
  attr {
    key: "data_format"
    value {
      s: "NHWC"
    }
  }
  attr {
    key: "ksize"
    value {
      list {
        i: 1
        i: 3
        i: 3
        i: 1
      }
    }
  }
  attr {
    key: "padding"
    value {
      s: "SAME"
    }
  }
  attr {
    key: "strides"
    value {
      list {
        i: 1
        i: 2
        i: 2
        i: 1
      }
    }
  }
}
node {
  name: "FirstStageFeatureExtractor/InceptionV2/Mixed_3b/Branch_0/Conv2d_0a_1x1/weights/Initializer/random_uniform/shape"
  op: "Const"
  attr {
    key: "_class"
    value {
      list {
        s: "loc:@FirstStageFeatureExtractor/InceptionV2/Mixed_3b/Branch_0/Conv2d_0a_1x1/weights"
      }
    }
  }
  attr {
    key: "dtype"
    value {
      type: DT_INT32
    }
  }
  attr {
    key: "value"
    value {
      tensor {
        dtype: DT_INT32
        tensor_shape {
          dim {
            size: 4
          }
        }
        tensor_content: "\001\000\000\000\001\000\000\000\300\000\000\000@\000\000\000"
      }
    }
  }
}
node {
  name: "FirstStageFeatureExtractor/InceptionV2/Mixed_3b/Branch_0/Conv2d_0a_1x1/weights/Initializer/random_uniform/min"
  op: "Const"
  attr {
    key: "_class"
    value {
      list {
        s: "loc:@FirstStageFeatureExtractor/InceptionV2/Mixed_3b/Branch_0/Conv2d_0a_1x1/weights"
      }
    }
  }
  attr {
    key: "dtype"
    value {
      type: DT_FLOAT
    }
  }
  attr {
    key: "value"
    value {
      tensor {
        dtype: DT_FLOAT
        tensor_shape {
        }
        float_val: -0.1530931144952774
      }
    }
  }
}
node {
  name: "FirstStageFeatureExtractor/InceptionV2/Mixed_3b/Branch_0/Conv2d_0a_1x1/weights/Initializer/random_uniform/max"
  op: "Const"
  attr {
    key: "_class"
    value {
      list {
        s: "loc:@FirstStageFeatureExtractor/InceptionV2/Mixed_3b/Branch_0/Conv2d_0a_1x1/weights"
      }
    }
  }
  attr {
    key: "dtype"
    value {
      type: DT_FLOAT
    }
  }
  attr {
    key: "value"
    value {
      tensor {
        dtype: DT_FLOAT
        tensor_shape {
        }
        float_val: 0.1530931144952774
      }
    }
  }
}
node {
  name: "FirstStageFeatureExtractor/InceptionV2/Mixed_3b/Branch_0/Conv2d_0a_1x1/weights/Initializer/random_uniform/RandomUniform"
  op: "RandomUniform"
  input: "FirstStageFeatureExtractor/InceptionV2/Mixed_3b/Branch_0/Conv2d_0a_1x1/weights/Initializer/random_uniform/shape"
  attr {
    key: "T"
    value {
      type: DT_INT32
    }
  }
  attr {
    key: "_class"
    value {
      list {
        s: "loc:@FirstStageFeatureExtractor/InceptionV2/Mixed_3b/Branch_0/Conv2d_0a_1x1/weights"
      }
    }
  }
  attr {
    key: "dtype"
    value {
      type: DT_FLOAT
    }
  }
  attr {
    key: "seed"
    value {
      i: 0
    }
  }
  attr {
    key: "seed2"
    value {
      i: 0
    }
  }
}
node {
  name: "FirstStageFeatureExtractor/InceptionV2/Mixed_3b/Branch_0/Conv2d_0a_1x1/weights/Initializer/random_uniform/sub"
  op: "Sub"
  input: "FirstStageFeatureExtractor/InceptionV2/Mixed_3b/Branch_0/Conv2d_0a_1x1/weights/Initializer/random_uniform/max"
  input: "FirstStageFeatureExtractor/InceptionV2/Mixed_3b/Branch_0/Conv2d_0a_1x1/weights/Initializer/random_uniform/min"
  attr {
    key: "T"
    value {
      type: DT_FLOAT
    }
  }
  attr {
    key: "_class"
    value {
      list {
        s: "loc:@FirstStageFeatureExtractor/InceptionV2/Mixed_3b/Branch_0/Conv2d_0a_1x1/weights"
      }
    }
  }
}
node {
  name: "FirstStageFeatureExtractor/InceptionV2/Mixed_3b/Branch_0/Conv2d_0a_1x1/weights/Initializer/random_uniform/mul"
  op: "Mul"
  input: "FirstStageFeatureExtractor/InceptionV2/Mixed_3b/Branch_0/Conv2d_0a_1x1/weights/Initializer/random_uniform/RandomUniform"
  input: "FirstStageFeatureExtractor/InceptionV2/Mixed_3b/Branch_0/Conv2d_0a_1x1/weights/Initializer/random_uniform/sub"
  attr {
    key: "T"
    value {
      type: DT_FLOAT
    }
  }
  attr {
    key: "_class"
    value {
      list {
        s: "loc:@FirstStageFeatureExtractor/InceptionV2/Mixed_3b/Branch_0/Conv2d_0a_1x1/weights"
      }
    }
  }
}
node {
  name: "FirstStageFeatureExtractor/InceptionV2/Mixed_3b/Branch_0/Conv2d_0a_1x1/weights/Initializer/random_uniform"
  op: "Add"
  input: "FirstStageFeatureExtractor/InceptionV2/Mixed_3b/Branch_0/Conv2d_0a_1x1/weights/Initializer/random_uniform/mul"
  input: "FirstStageFeatureExtractor/InceptionV2/Mixed_3b/Branch_0/Conv2d_0a_1x1/weights/Initializer/random_uniform/min"
  attr {
    key: "T"
    value {
      type: DT_FLOAT
    }
  }
  attr {
    key: "_class"
    value {
      list {
        s: "loc:@FirstStageFeatureExtractor/InceptionV2/Mixed_3b/Branch_0/Conv2d_0a_1x1/weights"
      }
    }
  }
}
node {
  name: "FirstStageFeatureExtractor/InceptionV2/Mixed_3b/Branch_0/Conv2d_0a_1x1/weights"
  op: "VariableV2"
  attr {
    key: "_class"
    value {
      list {
        s: "loc:@FirstStageFeatureExtractor/InceptionV2/Mixed_3b/Branch_0/Conv2d_0a_1x1/weights"
      }
    }
  }
  attr {
    key: "container"
    value {
      s: ""
    }
  }
  attr {
    key: "dtype"
    value {
      type: DT_FLOAT
    }
  }
  attr {
    key: "shape"
    value {
      shape {
        dim {
          size: 1
        }
        dim {
          size: 1
        }
        dim {
          size: 192
        }
        dim {
          size: 64
        }
      }
    }
  }
  attr {
    key: "shared_name"
    value {
      s: ""
    }
  }
}
node {
  name: "FirstStageFeatureExtractor/InceptionV2/Mixed_3b/Branch_0/Conv2d_0a_1x1/weights/Assign"
  op: "Assign"
  input: "FirstStageFeatureExtractor/InceptionV2/Mixed_3b/Branch_0/Conv2d_0a_1x1/weights"
  input: "FirstStageFeatureExtractor/InceptionV2/Mixed_3b/Branch_0/Conv2d_0a_1x1/weights/Initializer/random_uniform"
  attr {
    key: "T"
    value {
      type: DT_FLOAT
    }
  }
  attr {
    key: "_class"
    value {
      list {
        s: "loc:@FirstStageFeatureExtractor/InceptionV2/Mixed_3b/Branch_0/Conv2d_0a_1x1/weights"
      }
    }
  }
  attr {
    key: "use_locking"
    value {
      b: true
    }
  }
  attr {
    key: "validate_shape"
    value {
      b: true
    }
  }
}
node {
  name: "FirstStageFeatureExtractor/InceptionV2/Mixed_3b/Branch_0/Conv2d_0a_1x1/weights/read"
  op: "Identity"
  input: "FirstStageFeatureExtractor/InceptionV2/Mixed_3b/Branch_0/Conv2d_0a_1x1/weights"
  attr {
    key: "T"
    value {
      type: DT_FLOAT
    }
  }
  attr {
    key: "_class"
    value {
      list {
        s: "loc:@FirstStageFeatureExtractor/InceptionV2/Mixed_3b/Branch_0/Conv2d_0a_1x1/weights"
      }
    }
  }
}
node {
  name: "FirstStageFeatureExtractor/InceptionV2/InceptionV2/Mixed_3b/Branch_0/Conv2d_0a_1x1/dilation_rate"
  op: "Const"
  input: "^FirstStageFeatureExtractor/Assert/Assert"
  attr {
    key: "dtype"
    value {
      type: DT_INT32
    }
  }
  attr {
    key: "value"
    value {
      tensor {
        dtype: DT_INT32
        tensor_shape {
          dim {
            size: 2
          }
        }
        tensor_content: "\001\000\000\000\001\000\000\000"
      }
    }
  }
}
node {
  name: "FirstStageFeatureExtractor/InceptionV2/InceptionV2/Mixed_3b/Branch_0/Conv2d_0a_1x1/Conv2D"
  op: "Conv2D"
  input: "FirstStageFeatureExtractor/InceptionV2/InceptionV2/MaxPool_3a_3x3/MaxPool"
  input: "FirstStageFeatureExtractor/InceptionV2/Mixed_3b/Branch_0/Conv2d_0a_1x1/weights/read"
  attr {
    key: "T"
    value {
      type: DT_FLOAT
    }
  }
  attr {
    key: "data_format"
    value {
      s: "NHWC"
    }
  }
  attr {
    key: "dilations"
    value {
      list {
        i: 1
        i: 1
        i: 1
        i: 1
      }
    }
  }
  attr {
    key: "padding"
    value {
      s: "SAME"
    }
  }
  attr {
    key: "strides"
    value {
      list {
        i: 1
        i: 1
        i: 1
        i: 1
      }
    }
  }
  attr {
    key: "use_cudnn_on_gpu"
    value {
      b: true
    }
  }
}
node {
  name: "FirstStageFeatureExtractor/InceptionV2/Mixed_3b/Branch_0/Conv2d_0a_1x1/BatchNorm/gamma/Initializer/ones"
  op: "Const"
  attr {
    key: "_class"
    value {
      list {
        s: "loc:@FirstStageFeatureExtractor/InceptionV2/Mixed_3b/Branch_0/Conv2d_0a_1x1/BatchNorm/gamma"
      }
    }
  }
  attr {
    key: "dtype"
    value {
      type: DT_FLOAT
    }
  }
  attr {
    key: "value"
    value {
      tensor {
        dtype: DT_FLOAT
        tensor_shape {
          dim {
            size: 64
          }
        }
        float_val: 1.0
      }
    }
  }
}
node {
  name: "FirstStageFeatureExtractor/InceptionV2/Mixed_3b/Branch_0/Conv2d_0a_1x1/BatchNorm/gamma"
  op: "VariableV2"
  attr {
    key: "_class"
    value {
      list {
        s: "loc:@FirstStageFeatureExtractor/InceptionV2/Mixed_3b/Branch_0/Conv2d_0a_1x1/BatchNorm/gamma"
      }
    }
  }
  attr {
    key: "container"
    value {
      s: ""
    }
  }
  attr {
    key: "dtype"
    value {
      type: DT_FLOAT
    }
  }
  attr {
    key: "shape"
    value {
      shape {
        dim {
          size: 64
        }
      }
    }
  }
  attr {
    key: "shared_name"
    value {
      s: ""
    }
  }
}
node {
  name: "FirstStageFeatureExtractor/InceptionV2/Mixed_3b/Branch_0/Conv2d_0a_1x1/BatchNorm/gamma/Assign"
  op: "Assign"
  input: "FirstStageFeatureExtractor/InceptionV2/Mixed_3b/Branch_0/Conv2d_0a_1x1/BatchNorm/gamma"
  input: "FirstStageFeatureExtractor/InceptionV2/Mixed_3b/Branch_0/Conv2d_0a_1x1/BatchNorm/gamma/Initializer/ones"
  attr {
    key: "T"
    value {
      type: DT_FLOAT
    }
  }
  attr {
    key: "_class"
    value {
      list {
        s: "loc:@FirstStageFeatureExtractor/InceptionV2/Mixed_3b/Branch_0/Conv2d_0a_1x1/BatchNorm/gamma"
      }
    }
  }
  attr {
    key: "use_locking"
    value {
      b: true
    }
  }
  attr {
    key: "validate_shape"
    value {
      b: true
    }
  }
}
node {
  name: "FirstStageFeatureExtractor/InceptionV2/Mixed_3b/Branch_0/Conv2d_0a_1x1/BatchNorm/gamma/read"
  op: "Identity"
  input: "FirstStageFeatureExtractor/InceptionV2/Mixed_3b/Branch_0/Conv2d_0a_1x1/BatchNorm/gamma"
  attr {
    key: "T"
    value {
      type: DT_FLOAT
    }
  }
  attr {
    key: "_class"
    value {
      list {
        s: "loc:@FirstStageFeatureExtractor/InceptionV2/Mixed_3b/Branch_0/Conv2d_0a_1x1/BatchNorm/gamma"
      }
    }
  }
}
node {
  name: "FirstStageFeatureExtractor/InceptionV2/Mixed_3b/Branch_0/Conv2d_0a_1x1/BatchNorm/beta/Initializer/zeros"
  op: "Const"
  attr {
    key: "_class"
    value {
      list {
        s: "loc:@FirstStageFeatureExtractor/InceptionV2/Mixed_3b/Branch_0/Conv2d_0a_1x1/BatchNorm/beta"
      }
    }
  }
  attr {
    key: "dtype"
    value {
      type: DT_FLOAT
    }
  }
  attr {
    key: "value"
    value {
      tensor {
        dtype: DT_FLOAT
        tensor_shape {
          dim {
            size: 64
          }
        }
        float_val: 0.0
      }
    }
  }
}
node {
  name: "FirstStageFeatureExtractor/InceptionV2/Mixed_3b/Branch_0/Conv2d_0a_1x1/BatchNorm/beta"
  op: "VariableV2"
  attr {
    key: "_class"
    value {
      list {
        s: "loc:@FirstStageFeatureExtractor/InceptionV2/Mixed_3b/Branch_0/Conv2d_0a_1x1/BatchNorm/beta"
      }
    }
  }
  attr {
    key: "container"
    value {
      s: ""
    }
  }
  attr {
    key: "dtype"
    value {
      type: DT_FLOAT
    }
  }
  attr {
    key: "shape"
    value {
      shape {
        dim {
          size: 64
        }
      }
    }
  }
  attr {
    key: "shared_name"
    value {
      s: ""
    }
  }
}
node {
  name: "FirstStageFeatureExtractor/InceptionV2/Mixed_3b/Branch_0/Conv2d_0a_1x1/BatchNorm/beta/Assign"
  op: "Assign"
  input: "FirstStageFeatureExtractor/InceptionV2/Mixed_3b/Branch_0/Conv2d_0a_1x1/BatchNorm/beta"
  input: "FirstStageFeatureExtractor/InceptionV2/Mixed_3b/Branch_0/Conv2d_0a_1x1/BatchNorm/beta/Initializer/zeros"
  attr {
    key: "T"
    value {
      type: DT_FLOAT
    }
  }
  attr {
    key: "_class"
    value {
      list {
        s: "loc:@FirstStageFeatureExtractor/InceptionV2/Mixed_3b/Branch_0/Conv2d_0a_1x1/BatchNorm/beta"
      }
    }
  }
  attr {
    key: "use_locking"
    value {
      b: true
    }
  }
  attr {
    key: "validate_shape"
    value {
      b: true
    }
  }
}
node {
  name: "FirstStageFeatureExtractor/InceptionV2/Mixed_3b/Branch_0/Conv2d_0a_1x1/BatchNorm/beta/read"
  op: "Identity"
  input: "FirstStageFeatureExtractor/InceptionV2/Mixed_3b/Branch_0/Conv2d_0a_1x1/BatchNorm/beta"
  attr {
    key: "T"
    value {
      type: DT_FLOAT
    }
  }
  attr {
    key: "_class"
    value {
      list {
        s: "loc:@FirstStageFeatureExtractor/InceptionV2/Mixed_3b/Branch_0/Conv2d_0a_1x1/BatchNorm/beta"
      }
    }
  }
}
node {
  name: "FirstStageFeatureExtractor/InceptionV2/Mixed_3b/Branch_0/Conv2d_0a_1x1/BatchNorm/moving_mean/Initializer/zeros"
  op: "Const"
  attr {
    key: "_class"
    value {
      list {
        s: "loc:@FirstStageFeatureExtractor/InceptionV2/Mixed_3b/Branch_0/Conv2d_0a_1x1/BatchNorm/moving_mean"
      }
    }
  }
  attr {
    key: "dtype"
    value {
      type: DT_FLOAT
    }
  }
  attr {
    key: "value"
    value {
      tensor {
        dtype: DT_FLOAT
        tensor_shape {
          dim {
            size: 64
          }
        }
        float_val: 0.0
      }
    }
  }
}
node {
  name: "FirstStageFeatureExtractor/InceptionV2/Mixed_3b/Branch_0/Conv2d_0a_1x1/BatchNorm/moving_mean"
  op: "VariableV2"
  attr {
    key: "_class"
    value {
      list {
        s: "loc:@FirstStageFeatureExtractor/InceptionV2/Mixed_3b/Branch_0/Conv2d_0a_1x1/BatchNorm/moving_mean"
      }
    }
  }
  attr {
    key: "container"
    value {
      s: ""
    }
  }
  attr {
    key: "dtype"
    value {
      type: DT_FLOAT
    }
  }
  attr {
    key: "shape"
    value {
      shape {
        dim {
          size: 64
        }
      }
    }
  }
  attr {
    key: "shared_name"
    value {
      s: ""
    }
  }
}
node {
  name: "FirstStageFeatureExtractor/InceptionV2/Mixed_3b/Branch_0/Conv2d_0a_1x1/BatchNorm/moving_mean/Assign"
  op: "Assign"
  input: "FirstStageFeatureExtractor/InceptionV2/Mixed_3b/Branch_0/Conv2d_0a_1x1/BatchNorm/moving_mean"
  input: "FirstStageFeatureExtractor/InceptionV2/Mixed_3b/Branch_0/Conv2d_0a_1x1/BatchNorm/moving_mean/Initializer/zeros"
  attr {
    key: "T"
    value {
      type: DT_FLOAT
    }
  }
  attr {
    key: "_class"
    value {
      list {
        s: "loc:@FirstStageFeatureExtractor/InceptionV2/Mixed_3b/Branch_0/Conv2d_0a_1x1/BatchNorm/moving_mean"
      }
    }
  }
  attr {
    key: "use_locking"
    value {
      b: true
    }
  }
  attr {
    key: "validate_shape"
    value {
      b: true
    }
  }
}
node {
  name: "FirstStageFeatureExtractor/InceptionV2/Mixed_3b/Branch_0/Conv2d_0a_1x1/BatchNorm/moving_mean/read"
  op: "Identity"
  input: "FirstStageFeatureExtractor/InceptionV2/Mixed_3b/Branch_0/Conv2d_0a_1x1/BatchNorm/moving_mean"
  attr {
    key: "T"
    value {
      type: DT_FLOAT
    }
  }
  attr {
    key: "_class"
    value {
      list {
        s: "loc:@FirstStageFeatureExtractor/InceptionV2/Mixed_3b/Branch_0/Conv2d_0a_1x1/BatchNorm/moving_mean"
      }
    }
  }
}
node {
  name: "FirstStageFeatureExtractor/InceptionV2/Mixed_3b/Branch_0/Conv2d_0a_1x1/BatchNorm/moving_variance/Initializer/ones"
  op: "Const"
  attr {
    key: "_class"
    value {
      list {
        s: "loc:@FirstStageFeatureExtractor/InceptionV2/Mixed_3b/Branch_0/Conv2d_0a_1x1/BatchNorm/moving_variance"
      }
    }
  }
  attr {
    key: "dtype"
    value {
      type: DT_FLOAT
    }
  }
  attr {
    key: "value"
    value {
      tensor {
        dtype: DT_FLOAT
        tensor_shape {
          dim {
            size: 64
          }
        }
        float_val: 1.0
      }
    }
  }
}
node {
  name: "FirstStageFeatureExtractor/InceptionV2/Mixed_3b/Branch_0/Conv2d_0a_1x1/BatchNorm/moving_variance"
  op: "VariableV2"
  attr {
    key: "_class"
    value {
      list {
        s: "loc:@FirstStageFeatureExtractor/InceptionV2/Mixed_3b/Branch_0/Conv2d_0a_1x1/BatchNorm/moving_variance"
      }
    }
  }
  attr {
    key: "container"
    value {
      s: ""
    }
  }
  attr {
    key: "dtype"
    value {
      type: DT_FLOAT
    }
  }
  attr {
    key: "shape"
    value {
      shape {
        dim {
          size: 64
        }
      }
    }
  }
  attr {
    key: "shared_name"
    value {
      s: ""
    }
  }
}
node {
  name: "FirstStageFeatureExtractor/InceptionV2/Mixed_3b/Branch_0/Conv2d_0a_1x1/BatchNorm/moving_variance/Assign"
  op: "Assign"
  input: "FirstStageFeatureExtractor/InceptionV2/Mixed_3b/Branch_0/Conv2d_0a_1x1/BatchNorm/moving_variance"
  input: "FirstStageFeatureExtractor/InceptionV2/Mixed_3b/Branch_0/Conv2d_0a_1x1/BatchNorm/moving_variance/Initializer/ones"
  attr {
    key: "T"
    value {
      type: DT_FLOAT
    }
  }
  attr {
    key: "_class"
    value {
      list {
        s: "loc:@FirstStageFeatureExtractor/InceptionV2/Mixed_3b/Branch_0/Conv2d_0a_1x1/BatchNorm/moving_variance"
      }
    }
  }
  attr {
    key: "use_locking"
    value {
      b: true
    }
  }
  attr {
    key: "validate_shape"
    value {
      b: true
    }
  }
}
node {
  name: "FirstStageFeatureExtractor/InceptionV2/Mixed_3b/Branch_0/Conv2d_0a_1x1/BatchNorm/moving_variance/read"
  op: "Identity"
  input: "FirstStageFeatureExtractor/InceptionV2/Mixed_3b/Branch_0/Conv2d_0a_1x1/BatchNorm/moving_variance"
  attr {
    key: "T"
    value {
      type: DT_FLOAT
    }
  }
  attr {
    key: "_class"
    value {
      list {
        s: "loc:@FirstStageFeatureExtractor/InceptionV2/Mixed_3b/Branch_0/Conv2d_0a_1x1/BatchNorm/moving_variance"
      }
    }
  }
}
node {
  name: "FirstStageFeatureExtractor/InceptionV2/InceptionV2/Mixed_3b/Branch_0/Conv2d_0a_1x1/BatchNorm/FusedBatchNorm"
  op: "FusedBatchNorm"
  input: "FirstStageFeatureExtractor/InceptionV2/InceptionV2/Mixed_3b/Branch_0/Conv2d_0a_1x1/Conv2D"
  input: "FirstStageFeatureExtractor/InceptionV2/Mixed_3b/Branch_0/Conv2d_0a_1x1/BatchNorm/gamma/read"
  input: "FirstStageFeatureExtractor/InceptionV2/Mixed_3b/Branch_0/Conv2d_0a_1x1/BatchNorm/beta/read"
  input: "FirstStageFeatureExtractor/InceptionV2/Mixed_3b/Branch_0/Conv2d_0a_1x1/BatchNorm/moving_mean/read"
  input: "FirstStageFeatureExtractor/InceptionV2/Mixed_3b/Branch_0/Conv2d_0a_1x1/BatchNorm/moving_variance/read"
  attr {
    key: "T"
    value {
      type: DT_FLOAT
    }
  }
  attr {
    key: "data_format"
    value {
      s: "NHWC"
    }
  }
  attr {
    key: "epsilon"
    value {
      f: 0.0010000000474974513
    }
  }
  attr {
    key: "is_training"
    value {
      b: false
    }
  }
}
node {
  name: "FirstStageFeatureExtractor/InceptionV2/InceptionV2/Mixed_3b/Branch_0/Conv2d_0a_1x1/BatchNorm/Const"
  op: "Const"
  input: "^FirstStageFeatureExtractor/Assert/Assert"
  attr {
    key: "dtype"
    value {
      type: DT_FLOAT
    }
  }
  attr {
    key: "value"
    value {
      tensor {
        dtype: DT_FLOAT
        tensor_shape {
        }
        float_val: 0.9997000098228455
      }
    }
  }
}
node {
  name: "FirstStageFeatureExtractor/InceptionV2/InceptionV2/Mixed_3b/Branch_0/Conv2d_0a_1x1/Relu"
  op: "Relu"
  input: "FirstStageFeatureExtractor/InceptionV2/InceptionV2/Mixed_3b/Branch_0/Conv2d_0a_1x1/BatchNorm/FusedBatchNorm"
  attr {
    key: "T"
    value {
      type: DT_FLOAT
    }
  }
}
node {
  name: "FirstStageFeatureExtractor/InceptionV2/Mixed_3b/Branch_1/Conv2d_0a_1x1/weights/Initializer/truncated_normal/shape"
  op: "Const"
  attr {
    key: "_class"
    value {
      list {
        s: "loc:@FirstStageFeatureExtractor/InceptionV2/Mixed_3b/Branch_1/Conv2d_0a_1x1/weights"
      }
    }
  }
  attr {
    key: "dtype"
    value {
      type: DT_INT32
    }
  }
  attr {
    key: "value"
    value {
      tensor {
        dtype: DT_INT32
        tensor_shape {
          dim {
            size: 4
          }
        }
        tensor_content: "\001\000\000\000\001\000\000\000\300\000\000\000@\000\000\000"
      }
    }
  }
}
node {
  name: "FirstStageFeatureExtractor/InceptionV2/Mixed_3b/Branch_1/Conv2d_0a_1x1/weights/Initializer/truncated_normal/mean"
  op: "Const"
  attr {
    key: "_class"
    value {
      list {
        s: "loc:@FirstStageFeatureExtractor/InceptionV2/Mixed_3b/Branch_1/Conv2d_0a_1x1/weights"
      }
    }
  }
  attr {
    key: "dtype"
    value {
      type: DT_FLOAT
    }
  }
  attr {
    key: "value"
    value {
      tensor {
        dtype: DT_FLOAT
        tensor_shape {
        }
        float_val: 0.0
      }
    }
  }
}
node {
  name: "FirstStageFeatureExtractor/InceptionV2/Mixed_3b/Branch_1/Conv2d_0a_1x1/weights/Initializer/truncated_normal/stddev"
  op: "Const"
  attr {
    key: "_class"
    value {
      list {
        s: "loc:@FirstStageFeatureExtractor/InceptionV2/Mixed_3b/Branch_1/Conv2d_0a_1x1/weights"
      }
    }
  }
  attr {
    key: "dtype"
    value {
      type: DT_FLOAT
    }
  }
  attr {
    key: "value"
    value {
      tensor {
        dtype: DT_FLOAT
        tensor_shape {
        }
        float_val: 0.09000000357627869
      }
    }
  }
}
node {
  name: "FirstStageFeatureExtractor/InceptionV2/Mixed_3b/Branch_1/Conv2d_0a_1x1/weights/Initializer/truncated_normal/TruncatedNormal"
  op: "TruncatedNormal"
  input: "FirstStageFeatureExtractor/InceptionV2/Mixed_3b/Branch_1/Conv2d_0a_1x1/weights/Initializer/truncated_normal/shape"
  attr {
    key: "T"
    value {
      type: DT_INT32
    }
  }
  attr {
    key: "_class"
    value {
      list {
        s: "loc:@FirstStageFeatureExtractor/InceptionV2/Mixed_3b/Branch_1/Conv2d_0a_1x1/weights"
      }
    }
  }
  attr {
    key: "dtype"
    value {
      type: DT_FLOAT
    }
  }
  attr {
    key: "seed"
    value {
      i: 0
    }
  }
  attr {
    key: "seed2"
    value {
      i: 0
    }
  }
}
node {
  name: "FirstStageFeatureExtractor/InceptionV2/Mixed_3b/Branch_1/Conv2d_0a_1x1/weights/Initializer/truncated_normal/mul"
  op: "Mul"
  input: "FirstStageFeatureExtractor/InceptionV2/Mixed_3b/Branch_1/Conv2d_0a_1x1/weights/Initializer/truncated_normal/TruncatedNormal"
  input: "FirstStageFeatureExtractor/InceptionV2/Mixed_3b/Branch_1/Conv2d_0a_1x1/weights/Initializer/truncated_normal/stddev"
  attr {
    key: "T"
    value {
      type: DT_FLOAT
    }
  }
  attr {
    key: "_class"
    value {
      list {
        s: "loc:@FirstStageFeatureExtractor/InceptionV2/Mixed_3b/Branch_1/Conv2d_0a_1x1/weights"
      }
    }
  }
}
node {
  name: "FirstStageFeatureExtractor/InceptionV2/Mixed_3b/Branch_1/Conv2d_0a_1x1/weights/Initializer/truncated_normal"
  op: "Add"
  input: "FirstStageFeatureExtractor/InceptionV2/Mixed_3b/Branch_1/Conv2d_0a_1x1/weights/Initializer/truncated_normal/mul"
  input: "FirstStageFeatureExtractor/InceptionV2/Mixed_3b/Branch_1/Conv2d_0a_1x1/weights/Initializer/truncated_normal/mean"
  attr {
    key: "T"
    value {
      type: DT_FLOAT
    }
  }
  attr {
    key: "_class"
    value {
      list {
        s: "loc:@FirstStageFeatureExtractor/InceptionV2/Mixed_3b/Branch_1/Conv2d_0a_1x1/weights"
      }
    }
  }
}
node {
  name: "FirstStageFeatureExtractor/InceptionV2/Mixed_3b/Branch_1/Conv2d_0a_1x1/weights"
  op: "VariableV2"
  attr {
    key: "_class"
    value {
      list {
        s: "loc:@FirstStageFeatureExtractor/InceptionV2/Mixed_3b/Branch_1/Conv2d_0a_1x1/weights"
      }
    }
  }
  attr {
    key: "container"
    value {
      s: ""
    }
  }
  attr {
    key: "dtype"
    value {
      type: DT_FLOAT
    }
  }
  attr {
    key: "shape"
    value {
      shape {
        dim {
          size: 1
        }
        dim {
          size: 1
        }
        dim {
          size: 192
        }
        dim {
          size: 64
        }
      }
    }
  }
  attr {
    key: "shared_name"
    value {
      s: ""
    }
  }
}
node {
  name: "FirstStageFeatureExtractor/InceptionV2/Mixed_3b/Branch_1/Conv2d_0a_1x1/weights/Assign"
  op: "Assign"
  input: "FirstStageFeatureExtractor/InceptionV2/Mixed_3b/Branch_1/Conv2d_0a_1x1/weights"
  input: "FirstStageFeatureExtractor/InceptionV2/Mixed_3b/Branch_1/Conv2d_0a_1x1/weights/Initializer/truncated_normal"
  attr {
    key: "T"
    value {
      type: DT_FLOAT
    }
  }
  attr {
    key: "_class"
    value {
      list {
        s: "loc:@FirstStageFeatureExtractor/InceptionV2/Mixed_3b/Branch_1/Conv2d_0a_1x1/weights"
      }
    }
  }
  attr {
    key: "use_locking"
    value {
      b: true
    }
  }
  attr {
    key: "validate_shape"
    value {
      b: true
    }
  }
}
node {
  name: "FirstStageFeatureExtractor/InceptionV2/Mixed_3b/Branch_1/Conv2d_0a_1x1/weights/read"
  op: "Identity"
  input: "FirstStageFeatureExtractor/InceptionV2/Mixed_3b/Branch_1/Conv2d_0a_1x1/weights"
  attr {
    key: "T"
    value {
      type: DT_FLOAT
    }
  }
  attr {
    key: "_class"
    value {
      list {
        s: "loc:@FirstStageFeatureExtractor/InceptionV2/Mixed_3b/Branch_1/Conv2d_0a_1x1/weights"
      }
    }
  }
}
node {
  name: "FirstStageFeatureExtractor/InceptionV2/InceptionV2/Mixed_3b/Branch_1/Conv2d_0a_1x1/dilation_rate"
  op: "Const"
  input: "^FirstStageFeatureExtractor/Assert/Assert"
  attr {
    key: "dtype"
    value {
      type: DT_INT32
    }
  }
  attr {
    key: "value"
    value {
      tensor {
        dtype: DT_INT32
        tensor_shape {
          dim {
            size: 2
          }
        }
        tensor_content: "\001\000\000\000\001\000\000\000"
      }
    }
  }
}
node {
  name: "FirstStageFeatureExtractor/InceptionV2/InceptionV2/Mixed_3b/Branch_1/Conv2d_0a_1x1/Conv2D"
  op: "Conv2D"
  input: "FirstStageFeatureExtractor/InceptionV2/InceptionV2/MaxPool_3a_3x3/MaxPool"
  input: "FirstStageFeatureExtractor/InceptionV2/Mixed_3b/Branch_1/Conv2d_0a_1x1/weights/read"
  attr {
    key: "T"
    value {
      type: DT_FLOAT
    }
  }
  attr {
    key: "data_format"
    value {
      s: "NHWC"
    }
  }
  attr {
    key: "dilations"
    value {
      list {
        i: 1
        i: 1
        i: 1
        i: 1
      }
    }
  }
  attr {
    key: "padding"
    value {
      s: "SAME"
    }
  }
  attr {
    key: "strides"
    value {
      list {
        i: 1
        i: 1
        i: 1
        i: 1
      }
    }
  }
  attr {
    key: "use_cudnn_on_gpu"
    value {
      b: true
    }
  }
}
node {
  name: "FirstStageFeatureExtractor/InceptionV2/Mixed_3b/Branch_1/Conv2d_0a_1x1/BatchNorm/gamma/Initializer/ones"
  op: "Const"
  attr {
    key: "_class"
    value {
      list {
        s: "loc:@FirstStageFeatureExtractor/InceptionV2/Mixed_3b/Branch_1/Conv2d_0a_1x1/BatchNorm/gamma"
      }
    }
  }
  attr {
    key: "dtype"
    value {
      type: DT_FLOAT
    }
  }
  attr {
    key: "value"
    value {
      tensor {
        dtype: DT_FLOAT
        tensor_shape {
          dim {
            size: 64
          }
        }
        float_val: 1.0
      }
    }
  }
}
node {
  name: "FirstStageFeatureExtractor/InceptionV2/Mixed_3b/Branch_1/Conv2d_0a_1x1/BatchNorm/gamma"
  op: "VariableV2"
  attr {
    key: "_class"
    value {
      list {
        s: "loc:@FirstStageFeatureExtractor/InceptionV2/Mixed_3b/Branch_1/Conv2d_0a_1x1/BatchNorm/gamma"
      }
    }
  }
  attr {
    key: "container"
    value {
      s: ""
    }
  }
  attr {
    key: "dtype"
    value {
      type: DT_FLOAT
    }
  }
  attr {
    key: "shape"
    value {
      shape {
        dim {
          size: 64
        }
      }
    }
  }
  attr {
    key: "shared_name"
    value {
      s: ""
    }
  }
}
node {
  name: "FirstStageFeatureExtractor/InceptionV2/Mixed_3b/Branch_1/Conv2d_0a_1x1/BatchNorm/gamma/Assign"
  op: "Assign"
  input: "FirstStageFeatureExtractor/InceptionV2/Mixed_3b/Branch_1/Conv2d_0a_1x1/BatchNorm/gamma"
  input: "FirstStageFeatureExtractor/InceptionV2/Mixed_3b/Branch_1/Conv2d_0a_1x1/BatchNorm/gamma/Initializer/ones"
  attr {
    key: "T"
    value {
      type: DT_FLOAT
    }
  }
  attr {
    key: "_class"
    value {
      list {
        s: "loc:@FirstStageFeatureExtractor/InceptionV2/Mixed_3b/Branch_1/Conv2d_0a_1x1/BatchNorm/gamma"
      }
    }
  }
  attr {
    key: "use_locking"
    value {
      b: true
    }
  }
  attr {
    key: "validate_shape"
    value {
      b: true
    }
  }
}
node {
  name: "FirstStageFeatureExtractor/InceptionV2/Mixed_3b/Branch_1/Conv2d_0a_1x1/BatchNorm/gamma/read"
  op: "Identity"
  input: "FirstStageFeatureExtractor/InceptionV2/Mixed_3b/Branch_1/Conv2d_0a_1x1/BatchNorm/gamma"
  attr {
    key: "T"
    value {
      type: DT_FLOAT
    }
  }
  attr {
    key: "_class"
    value {
      list {
        s: "loc:@FirstStageFeatureExtractor/InceptionV2/Mixed_3b/Branch_1/Conv2d_0a_1x1/BatchNorm/gamma"
      }
    }
  }
}
node {
  name: "FirstStageFeatureExtractor/InceptionV2/Mixed_3b/Branch_1/Conv2d_0a_1x1/BatchNorm/beta/Initializer/zeros"
  op: "Const"
  attr {
    key: "_class"
    value {
      list {
        s: "loc:@FirstStageFeatureExtractor/InceptionV2/Mixed_3b/Branch_1/Conv2d_0a_1x1/BatchNorm/beta"
      }
    }
  }
  attr {
    key: "dtype"
    value {
      type: DT_FLOAT
    }
  }
  attr {
    key: "value"
    value {
      tensor {
        dtype: DT_FLOAT
        tensor_shape {
          dim {
            size: 64
          }
        }
        float_val: 0.0
      }
    }
  }
}
node {
  name: "FirstStageFeatureExtractor/InceptionV2/Mixed_3b/Branch_1/Conv2d_0a_1x1/BatchNorm/beta"
  op: "VariableV2"
  attr {
    key: "_class"
    value {
      list {
        s: "loc:@FirstStageFeatureExtractor/InceptionV2/Mixed_3b/Branch_1/Conv2d_0a_1x1/BatchNorm/beta"
      }
    }
  }
  attr {
    key: "container"
    value {
      s: ""
    }
  }
  attr {
    key: "dtype"
    value {
      type: DT_FLOAT
    }
  }
  attr {
    key: "shape"
    value {
      shape {
        dim {
          size: 64
        }
      }
    }
  }
  attr {
    key: "shared_name"
    value {
      s: ""
    }
  }
}
node {
  name: "FirstStageFeatureExtractor/InceptionV2/Mixed_3b/Branch_1/Conv2d_0a_1x1/BatchNorm/beta/Assign"
  op: "Assign"
  input: "FirstStageFeatureExtractor/InceptionV2/Mixed_3b/Branch_1/Conv2d_0a_1x1/BatchNorm/beta"
  input: "FirstStageFeatureExtractor/InceptionV2/Mixed_3b/Branch_1/Conv2d_0a_1x1/BatchNorm/beta/Initializer/zeros"
  attr {
    key: "T"
    value {
      type: DT_FLOAT
    }
  }
  attr {
    key: "_class"
    value {
      list {
        s: "loc:@FirstStageFeatureExtractor/InceptionV2/Mixed_3b/Branch_1/Conv2d_0a_1x1/BatchNorm/beta"
      }
    }
  }
  attr {
    key: "use_locking"
    value {
      b: true
    }
  }
  attr {
    key: "validate_shape"
    value {
      b: true
    }
  }
}
node {
  name: "FirstStageFeatureExtractor/InceptionV2/Mixed_3b/Branch_1/Conv2d_0a_1x1/BatchNorm/beta/read"
  op: "Identity"
  input: "FirstStageFeatureExtractor/InceptionV2/Mixed_3b/Branch_1/Conv2d_0a_1x1/BatchNorm/beta"
  attr {
    key: "T"
    value {
      type: DT_FLOAT
    }
  }
  attr {
    key: "_class"
    value {
      list {
        s: "loc:@FirstStageFeatureExtractor/InceptionV2/Mixed_3b/Branch_1/Conv2d_0a_1x1/BatchNorm/beta"
      }
    }
  }
}
node {
  name: "FirstStageFeatureExtractor/InceptionV2/Mixed_3b/Branch_1/Conv2d_0a_1x1/BatchNorm/moving_mean/Initializer/zeros"
  op: "Const"
  attr {
    key: "_class"
    value {
      list {
        s: "loc:@FirstStageFeatureExtractor/InceptionV2/Mixed_3b/Branch_1/Conv2d_0a_1x1/BatchNorm/moving_mean"
      }
    }
  }
  attr {
    key: "dtype"
    value {
      type: DT_FLOAT
    }
  }
  attr {
    key: "value"
    value {
      tensor {
        dtype: DT_FLOAT
        tensor_shape {
          dim {
            size: 64
          }
        }
        float_val: 0.0
      }
    }
  }
}
node {
  name: "FirstStageFeatureExtractor/InceptionV2/Mixed_3b/Branch_1/Conv2d_0a_1x1/BatchNorm/moving_mean"
  op: "VariableV2"
  attr {
    key: "_class"
    value {
      list {
        s: "loc:@FirstStageFeatureExtractor/InceptionV2/Mixed_3b/Branch_1/Conv2d_0a_1x1/BatchNorm/moving_mean"
      }
    }
  }
  attr {
    key: "container"
    value {
      s: ""
    }
  }
  attr {
    key: "dtype"
    value {
      type: DT_FLOAT
    }
  }
  attr {
    key: "shape"
    value {
      shape {
        dim {
          size: 64
        }
      }
    }
  }
  attr {
    key: "shared_name"
    value {
      s: ""
    }
  }
}
node {
  name: "FirstStageFeatureExtractor/InceptionV2/Mixed_3b/Branch_1/Conv2d_0a_1x1/BatchNorm/moving_mean/Assign"
  op: "Assign"
  input: "FirstStageFeatureExtractor/InceptionV2/Mixed_3b/Branch_1/Conv2d_0a_1x1/BatchNorm/moving_mean"
  input: "FirstStageFeatureExtractor/InceptionV2/Mixed_3b/Branch_1/Conv2d_0a_1x1/BatchNorm/moving_mean/Initializer/zeros"
  attr {
    key: "T"
    value {
      type: DT_FLOAT
    }
  }
  attr {
    key: "_class"
    value {
      list {
        s: "loc:@FirstStageFeatureExtractor/InceptionV2/Mixed_3b/Branch_1/Conv2d_0a_1x1/BatchNorm/moving_mean"
      }
    }
  }
  attr {
    key: "use_locking"
    value {
      b: true
    }
  }
  attr {
    key: "validate_shape"
    value {
      b: true
    }
  }
}
node {
  name: "FirstStageFeatureExtractor/InceptionV2/Mixed_3b/Branch_1/Conv2d_0a_1x1/BatchNorm/moving_mean/read"
  op: "Identity"
  input: "FirstStageFeatureExtractor/InceptionV2/Mixed_3b/Branch_1/Conv2d_0a_1x1/BatchNorm/moving_mean"
  attr {
    key: "T"
    value {
      type: DT_FLOAT
    }
  }
  attr {
    key: "_class"
    value {
      list {
        s: "loc:@FirstStageFeatureExtractor/InceptionV2/Mixed_3b/Branch_1/Conv2d_0a_1x1/BatchNorm/moving_mean"
      }
    }
  }
}
node {
  name: "FirstStageFeatureExtractor/InceptionV2/Mixed_3b/Branch_1/Conv2d_0a_1x1/BatchNorm/moving_variance/Initializer/ones"
  op: "Const"
  attr {
    key: "_class"
    value {
      list {
        s: "loc:@FirstStageFeatureExtractor/InceptionV2/Mixed_3b/Branch_1/Conv2d_0a_1x1/BatchNorm/moving_variance"
      }
    }
  }
  attr {
    key: "dtype"
    value {
      type: DT_FLOAT
    }
  }
  attr {
    key: "value"
    value {
      tensor {
        dtype: DT_FLOAT
        tensor_shape {
          dim {
            size: 64
          }
        }
        float_val: 1.0
      }
    }
  }
}
node {
  name: "FirstStageFeatureExtractor/InceptionV2/Mixed_3b/Branch_1/Conv2d_0a_1x1/BatchNorm/moving_variance"
  op: "VariableV2"
  attr {
    key: "_class"
    value {
      list {
        s: "loc:@FirstStageFeatureExtractor/InceptionV2/Mixed_3b/Branch_1/Conv2d_0a_1x1/BatchNorm/moving_variance"
      }
    }
  }
  attr {
    key: "container"
    value {
      s: ""
    }
  }
  attr {
    key: "dtype"
    value {
      type: DT_FLOAT
    }
  }
  attr {
    key: "shape"
    value {
      shape {
        dim {
          size: 64
        }
      }
    }
  }
  attr {
    key: "shared_name"
    value {
      s: ""
    }
  }
}
node {
  name: "FirstStageFeatureExtractor/InceptionV2/Mixed_3b/Branch_1/Conv2d_0a_1x1/BatchNorm/moving_variance/Assign"
  op: "Assign"
  input: "FirstStageFeatureExtractor/InceptionV2/Mixed_3b/Branch_1/Conv2d_0a_1x1/BatchNorm/moving_variance"
  input: "FirstStageFeatureExtractor/InceptionV2/Mixed_3b/Branch_1/Conv2d_0a_1x1/BatchNorm/moving_variance/Initializer/ones"
  attr {
    key: "T"
    value {
      type: DT_FLOAT
    }
  }
  attr {
    key: "_class"
    value {
      list {
        s: "loc:@FirstStageFeatureExtractor/InceptionV2/Mixed_3b/Branch_1/Conv2d_0a_1x1/BatchNorm/moving_variance"
      }
    }
  }
  attr {
    key: "use_locking"
    value {
      b: true
    }
  }
  attr {
    key: "validate_shape"
    value {
      b: true
    }
  }
}
node {
  name: "FirstStageFeatureExtractor/InceptionV2/Mixed_3b/Branch_1/Conv2d_0a_1x1/BatchNorm/moving_variance/read"
  op: "Identity"
  input: "FirstStageFeatureExtractor/InceptionV2/Mixed_3b/Branch_1/Conv2d_0a_1x1/BatchNorm/moving_variance"
  attr {
    key: "T"
    value {
      type: DT_FLOAT
    }
  }
  attr {
    key: "_class"
    value {
      list {
        s: "loc:@FirstStageFeatureExtractor/InceptionV2/Mixed_3b/Branch_1/Conv2d_0a_1x1/BatchNorm/moving_variance"
      }
    }
  }
}
node {
  name: "FirstStageFeatureExtractor/InceptionV2/InceptionV2/Mixed_3b/Branch_1/Conv2d_0a_1x1/BatchNorm/FusedBatchNorm"
  op: "FusedBatchNorm"
  input: "FirstStageFeatureExtractor/InceptionV2/InceptionV2/Mixed_3b/Branch_1/Conv2d_0a_1x1/Conv2D"
  input: "FirstStageFeatureExtractor/InceptionV2/Mixed_3b/Branch_1/Conv2d_0a_1x1/BatchNorm/gamma/read"
  input: "FirstStageFeatureExtractor/InceptionV2/Mixed_3b/Branch_1/Conv2d_0a_1x1/BatchNorm/beta/read"
  input: "FirstStageFeatureExtractor/InceptionV2/Mixed_3b/Branch_1/Conv2d_0a_1x1/BatchNorm/moving_mean/read"
  input: "FirstStageFeatureExtractor/InceptionV2/Mixed_3b/Branch_1/Conv2d_0a_1x1/BatchNorm/moving_variance/read"
  attr {
    key: "T"
    value {
      type: DT_FLOAT
    }
  }
  attr {
    key: "data_format"
    value {
      s: "NHWC"
    }
  }
  attr {
    key: "epsilon"
    value {
      f: 0.0010000000474974513
    }
  }
  attr {
    key: "is_training"
    value {
      b: false
    }
  }
}
node {
  name: "FirstStageFeatureExtractor/InceptionV2/InceptionV2/Mixed_3b/Branch_1/Conv2d_0a_1x1/BatchNorm/Const"
  op: "Const"
  input: "^FirstStageFeatureExtractor/Assert/Assert"
  attr {
    key: "dtype"
    value {
      type: DT_FLOAT
    }
  }
  attr {
    key: "value"
    value {
      tensor {
        dtype: DT_FLOAT
        tensor_shape {
        }
        float_val: 0.9997000098228455
      }
    }
  }
}
node {
…
  attr {
    key: "_class"
    value {
      list {
        s: "loc:@SecondStageFeatureExtractor/InceptionV2/Mixed_5a/Branch_1/Conv2d_1a_3x3/weights"
      }
    }
  }
  attr {
    key: "use_locking"
    value {
      b: true
    }
  }
  attr {
    key: "validate_shape"
    value {
      b: true
    }
  }
}
node {
  name: "save/Assign_286"
  op: "Assign"
  input: "SecondStageFeatureExtractor/InceptionV2/Mixed_5b/Branch_0/Conv2d_0a_1x1/BatchNorm/beta"
  input: "save/RestoreV2:286"
  attr {
    key: "T"
    value {
      type: DT_FLOAT
    }
  }
  attr {
    key: "_class"
    value {
      list {
        s: "loc:@SecondStageFeatureExtractor/InceptionV2/Mixed_5b/Branch_0/Conv2d_0a_1x1/BatchNorm/beta"
      }
    }
  }
  attr {
    key: "use_locking"
    value {
      b: true
    }
  }
  attr {
    key: "validate_shape"
    value {
      b: true
    }
  }
}
node {
  name: "save/Assign_287"
  op: "Assign"
  input: "SecondStageFeatureExtractor/InceptionV2/Mixed_5b/Branch_0/Conv2d_0a_1x1/BatchNorm/gamma"
  input: "save/RestoreV2:287"
  attr {
    key: "T"
    value {
      type: DT_FLOAT
    }
  }
  attr {
    key: "_class"
    value {
      list {
        s: "loc:@SecondStageFeatureExtractor/InceptionV2/Mixed_5b/Branch_0/Conv2d_0a_1x1/BatchNorm/gamma"
      }
    }
  }
  attr {
    key: "use_locking"
    value {
      b: true
    }
  }
  attr {
    key: "validate_shape"
    value {
      b: true
    }
  }
}
node {
  name: "save/Assign_288"
  op: "Assign"
  input: "SecondStageFeatureExtractor/InceptionV2/Mixed_5b/Branch_0/Conv2d_0a_1x1/BatchNorm/moving_mean"
  input: "save/RestoreV2:288"
  attr {
    key: "T"
    value {
      type: DT_FLOAT
    }
  }
  attr {
    key: "_class"
    value {
      list {
        s: "loc:@SecondStageFeatureExtractor/InceptionV2/Mixed_5b/Branch_0/Conv2d_0a_1x1/BatchNorm/moving_mean"
      }
    }
  }
  attr {
    key: "use_locking"
    value {
      b: true
    }
  }
  attr {
    key: "validate_shape"
    value {
      b: true
    }
  }
}
node {
  name: "save/Assign_289"
  op: "Assign"
  input: "SecondStageFeatureExtractor/InceptionV2/Mixed_5b/Branch_0/Conv2d_0a_1x1/BatchNorm/moving_variance"
  input: "save/RestoreV2:289"
  attr {
    key: "T"
    value {
      type: DT_FLOAT
    }
  }
  attr {
    key: "_class"
    value {
      list {
        s: "loc:@SecondStageFeatureExtractor/InceptionV2/Mixed_5b/Branch_0/Conv2d_0a_1x1/BatchNorm/moving_variance"
      }
    }
  }
  attr {
    key: "use_locking"
    value {
      b: true
    }
  }
  attr {
    key: "validate_shape"
    value {
      b: true
    }
  }
}
node {
  name: "save/Assign_290"
  op: "Assign"
  input: "SecondStageFeatureExtractor/InceptionV2/Mixed_5b/Branch_0/Conv2d_0a_1x1/weights"
  input: "save/RestoreV2:290"
  attr {
    key: "T"
    value {
      type: DT_FLOAT
    }
  }
  attr {
    key: "_class"
    value {
      list {
        s: "loc:@SecondStageFeatureExtractor/InceptionV2/Mixed_5b/Branch_0/Conv2d_0a_1x1/weights"
      }
    }
  }
  attr {
    key: "use_locking"
    value {
      b: true
    }
  }
  attr {
    key: "validate_shape"
    value {
      b: true
    }
  }
}
node {
  name: "save/Assign_291"
  op: "Assign"
  input: "SecondStageFeatureExtractor/InceptionV2/Mixed_5b/Branch_1/Conv2d_0a_1x1/BatchNorm/beta"
  input: "save/RestoreV2:291"
  attr {
    key: "T"
    value {
      type: DT_FLOAT
    }
  }
  attr {
    key: "_class"
    value {
      list {
        s: "loc:@SecondStageFeatureExtractor/InceptionV2/Mixed_5b/Branch_1/Conv2d_0a_1x1/BatchNorm/beta"
      }
    }
  }
  attr {
    key: "use_locking"
    value {
      b: true
    }
  }
  attr {
    key: "validate_shape"
    value {
      b: true
    }
  }
}
node {
  name: "save/Assign_292"
  op: "Assign"
  input: "SecondStageFeatureExtractor/InceptionV2/Mixed_5b/Branch_1/Conv2d_0a_1x1/BatchNorm/gamma"
  input: "save/RestoreV2:292"
  attr {
    key: "T"
    value {
      type: DT_FLOAT
    }
  }
  attr {
    key: "_class"
    value {
      list {
        s: "loc:@SecondStageFeatureExtractor/InceptionV2/Mixed_5b/Branch_1/Conv2d_0a_1x1/BatchNorm/gamma"
      }
    }
  }
  attr {
    key: "use_locking"
    value {
      b: true
    }
  }
  attr {
    key: "validate_shape"
    value {
      b: true
    }
  }
}
node {
  name: "save/Assign_293"
  op: "Assign"
  input: "SecondStageFeatureExtractor/InceptionV2/Mixed_5b/Branch_1/Conv2d_0a_1x1/BatchNorm/moving_mean"
  input: "save/RestoreV2:293"
  attr {
    key: "T"
    value {
      type: DT_FLOAT
    }
  }
  attr {
    key: "_class"
    value {
      list {
        s: "loc:@SecondStageFeatureExtractor/InceptionV2/Mixed_5b/Branch_1/Conv2d_0a_1x1/BatchNorm/moving_mean"
      }
    }
  }
  attr {
    key: "use_locking"
    value {
      b: true
    }
  }
  attr {
    key: "validate_shape"
    value {
      b: true
    }
  }
}
node {
  name: "save/Assign_294"
  op: "Assign"
  input: "SecondStageFeatureExtractor/InceptionV2/Mixed_5b/Branch_1/Conv2d_0a_1x1/BatchNorm/moving_variance"
  input: "save/RestoreV2:294"
  attr {
    key: "T"
    value {
      type: DT_FLOAT
    }
  }
  attr {
    key: "_class"
    value {
      list {
        s: "loc:@SecondStageFeatureExtractor/InceptionV2/Mixed_5b/Branch_1/Conv2d_0a_1x1/BatchNorm/moving_variance"
      }
    }
  }
  attr {
    key: "use_locking"
    value {
      b: true
    }
  }
  attr {
    key: "validate_shape"
    value {
      b: true
    }
  }
}
node {
  name: "save/Assign_295"
  op: "Assign"
  input: "SecondStageFeatureExtractor/InceptionV2/Mixed_5b/Branch_1/Conv2d_0a_1x1/weights"
  input: "save/RestoreV2:295"
  attr {
    key: "T"
    value {
      type: DT_FLOAT
    }
  }
  attr {
    key: "_class"
    value {
      list {
        s: "loc:@SecondStageFeatureExtractor/InceptionV2/Mixed_5b/Branch_1/Conv2d_0a_1x1/weights"
      }
    }
  }
  attr {
    key: "use_locking"
    value {
      b: true
    }
  }
  attr {
    key: "validate_shape"
    value {
      b: true
    }
  }
}
node {
  name: "save/Assign_296"
  op: "Assign"
  input: "SecondStageFeatureExtractor/InceptionV2/Mixed_5b/Branch_1/Conv2d_0b_3x3/BatchNorm/beta"
  input: "save/RestoreV2:296"
  attr {
    key: "T"
    value {
      type: DT_FLOAT
    }
  }
  attr {
    key: "_class"
    value {
      list {
        s: "loc:@SecondStageFeatureExtractor/InceptionV2/Mixed_5b/Branch_1/Conv2d_0b_3x3/BatchNorm/beta"
      }
    }
  }
  attr {
    key: "use_locking"
    value {
      b: true
    }
  }
  attr {
    key: "validate_shape"
    value {
      b: true
    }
  }
}
node {
  name: "save/Assign_297"
  op: "Assign"
  input: "SecondStageFeatureExtractor/InceptionV2/Mixed_5b/Branch_1/Conv2d_0b_3x3/BatchNorm/gamma"
  input: "save/RestoreV2:297"
  attr {
    key: "T"
    value {
      type: DT_FLOAT
    }
  }
  attr {
    key: "_class"
    value {
      list {
        s: "loc:@SecondStageFeatureExtractor/InceptionV2/Mixed_5b/Branch_1/Conv2d_0b_3x3/BatchNorm/gamma"
      }
    }
  }
  attr {
    key: "use_locking"
    value {
      b: true
    }
  }
  attr {
    key: "validate_shape"
    value {
      b: true
    }
  }
}
node {
  name: "save/Assign_298"
  op: "Assign"
  input: "SecondStageFeatureExtractor/InceptionV2/Mixed_5b/Branch_1/Conv2d_0b_3x3/BatchNorm/moving_mean"
  input: "save/RestoreV2:298"
  attr {
    key: "T"
    value {
      type: DT_FLOAT
    }
  }
  attr {
    key: "_class"
    value {
      list {
        s: "loc:@SecondStageFeatureExtractor/InceptionV2/Mixed_5b/Branch_1/Conv2d_0b_3x3/BatchNorm/moving_mean"
      }
    }
  }
  attr {
    key: "use_locking"
    value {
      b: true
    }
  }
  attr {
    key: "validate_shape"
    value {
      b: true
    }
  }
}
node {
  name: "save/Assign_299"
  op: "Assign"
  input: "SecondStageFeatureExtractor/InceptionV2/Mixed_5b/Branch_1/Conv2d_0b_3x3/BatchNorm/moving_variance"
  input: "save/RestoreV2:299"
  attr {
    key: "T"
    value {
      type: DT_FLOAT
    }
  }
  attr {
    key: "_class"
    value {
      list {
        s: "loc:@SecondStageFeatureExtractor/InceptionV2/Mixed_5b/Branch_1/Conv2d_0b_3x3/BatchNorm/moving_variance"
      }
    }
  }
  attr {
    key: "use_locking"
    value {
      b: true
    }
  }
  attr {
    key: "validate_shape"
    value {
      b: true
    }
  }
}
node {
  name: "save/Assign_300"
  op: "Assign"
  input: "SecondStageFeatureExtractor/InceptionV2/Mixed_5b/Branch_1/Conv2d_0b_3x3/weights"
  input: "save/RestoreV2:300"
  attr {
    key: "T"
    value {
      type: DT_FLOAT
    }
  }
  attr {
    key: "_class"
    value {
      list {
        s: "loc:@SecondStageFeatureExtractor/InceptionV2/Mixed_5b/Branch_1/Conv2d_0b_3x3/weights"
      }
    }
  }
  attr {
    key: "use_locking"
    value {
      b: true
    }
  }
  attr {
    key: "validate_shape"
    value {
      b: true
    }
  }
}
node {
  name: "save/Assign_301"
  op: "Assign"
  input: "SecondStageFeatureExtractor/InceptionV2/Mixed_5b/Branch_2/Conv2d_0a_1x1/BatchNorm/beta"
  input: "save/RestoreV2:301"
  attr {
    key: "T"
    value {
      type: DT_FLOAT
    }
  }
  attr {
    key: "_class"
    value {
      list {
        s: "loc:@SecondStageFeatureExtractor/InceptionV2/Mixed_5b/Branch_2/Conv2d_0a_1x1/BatchNorm/beta"
      }
    }
  }
  attr {
    key: "use_locking"
    value {
      b: true
    }
  }
  attr {
    key: "validate_shape"
    value {
      b: true
    }
  }
}
node {
  name: "save/Assign_302"
  op: "Assign"
  input: "SecondStageFeatureExtractor/InceptionV2/Mixed_5b/Branch_2/Conv2d_0a_1x1/BatchNorm/gamma"
  input: "save/RestoreV2:302"
  attr {
    key: "T"
    value {
      type: DT_FLOAT
    }
  }
  attr {
    key: "_class"
    value {
      list {
        s: "loc:@SecondStageFeatureExtractor/InceptionV2/Mixed_5b/Branch_2/Conv2d_0a_1x1/BatchNorm/gamma"
      }
    }
  }
  attr {
    key: "use_locking"
    value {
      b: true
    }
  }
  attr {
    key: "validate_shape"
    value {
      b: true
    }
  }
}
node {
  name: "save/Assign_303"
  op: "Assign"
  input: "SecondStageFeatureExtractor/InceptionV2/Mixed_5b/Branch_2/Conv2d_0a_1x1/BatchNorm/moving_mean"
  input: "save/RestoreV2:303"
  attr {
    key: "T"
    value {
      type: DT_FLOAT
    }
  }
  attr {
    key: "_class"
    value {
      list {
        s: "loc:@SecondStageFeatureExtractor/InceptionV2/Mixed_5b/Branch_2/Conv2d_0a_1x1/BatchNorm/moving_mean"
      }
    }
  }
  attr {
    key: "use_locking"
    value {
      b: true
    }
  }
  attr {
    key: "validate_shape"
    value {
      b: true
    }
  }
}
node {
  name: "save/Assign_304"
  op: "Assign"
  input: "SecondStageFeatureExtractor/InceptionV2/Mixed_5b/Branch_2/Conv2d_0a_1x1/BatchNorm/moving_variance"
  input: "save/RestoreV2:304"
  attr {
    key: "T"
    value {
      type: DT_FLOAT
    }
  }
  attr {
    key: "_class"
    value {
      list {
        s: "loc:@SecondStageFeatureExtractor/InceptionV2/Mixed_5b/Branch_2/Conv2d_0a_1x1/BatchNorm/moving_variance"
      }
    }
  }
  attr {
    key: "use_locking"
    value {
      b: true
    }
  }
  attr {
    key: "validate_shape"
    value {
      b: true
    }
  }
}
node {
  name: "save/Assign_305"
  op: "Assign"
  input: "SecondStageFeatureExtractor/InceptionV2/Mixed_5b/Branch_2/Conv2d_0a_1x1/weights"
  input: "save/RestoreV2:305"
  attr {
    key: "T"
    value {
      type: DT_FLOAT
    }
  }
  attr {
    key: "_class"
    value {
      list {
        s: "loc:@SecondStageFeatureExtractor/InceptionV2/Mixed_5b/Branch_2/Conv2d_0a_1x1/weights"
      }
    }
  }
  attr {
    key: "use_locking"
    value {
      b: true
    }
  }
  attr {
    key: "validate_shape"
    value {
      b: true
    }
  }
}
node {
  name: "save/Assign_306"
  op: "Assign"
  input: "SecondStageFeatureExtractor/InceptionV2/Mixed_5b/Branch_2/Conv2d_0b_3x3/BatchNorm/beta"
  input: "save/RestoreV2:306"
  attr {
    key: "T"
    value {
      type: DT_FLOAT
    }
  }
  attr {
    key: "_class"
    value {
      list {
        s: "loc:@SecondStageFeatureExtractor/InceptionV2/Mixed_5b/Branch_2/Conv2d_0b_3x3/BatchNorm/beta"
      }
    }
  }
  attr {
    key: "use_locking"
    value {
      b: true
    }
  }
  attr {
    key: "validate_shape"
    value {
      b: true
    }
  }
}
node {
  name: "save/Assign_307"
  op: "Assign"
  input: "SecondStageFeatureExtractor/InceptionV2/Mixed_5b/Branch_2/Conv2d_0b_3x3/BatchNorm/gamma"
  input: "save/RestoreV2:307"
  attr {
    key: "T"
    value {
      type: DT_FLOAT
    }
  }
  attr {
    key: "_class"
    value {
      list {
        s: "loc:@SecondStageFeatureExtractor/InceptionV2/Mixed_5b/Branch_2/Conv2d_0b_3x3/BatchNorm/gamma"
      }
    }
  }
  attr {
    key: "use_locking"
    value {
      b: true
    }
  }
  attr {
    key: "validate_shape"
    value {
      b: true
    }
  }
}
node {
  name: "save/Assign_308"
  op: "Assign"
  input: "SecondStageFeatureExtractor/InceptionV2/Mixed_5b/Branch_2/Conv2d_0b_3x3/BatchNorm/moving_mean"
  input: "save/RestoreV2:308"
  attr {
    key: "T"
    value {
      type: DT_FLOAT
    }
  }
  attr {
    key: "_class"
    value {
      list {
        s: "loc:@SecondStageFeatureExtractor/InceptionV2/Mixed_5b/Branch_2/Conv2d_0b_3x3/BatchNorm/moving_mean"
      }
    }
  }
  attr {
    key: "use_locking"
    value {
      b: true
    }
  }
  attr {
    key: "validate_shape"
    value {
      b: true
    }
  }
}
node {
  name: "save/Assign_309"
  op: "Assign"
  input: "SecondStageFeatureExtractor/InceptionV2/Mixed_5b/Branch_2/Conv2d_0b_3x3/BatchNorm/moving_variance"
  input: "save/RestoreV2:309"
  attr {
    key: "T"
    value {
      type: DT_FLOAT
    }
  }
  attr {
    key: "_class"
    value {
      list {
        s: "loc:@SecondStageFeatureExtractor/InceptionV2/Mixed_5b/Branch_2/Conv2d_0b_3x3/BatchNorm/moving_variance"
      }
    }
  }
  attr {
    key: "use_locking"
    value {
      b: true
    }
  }
  attr {
    key: "validate_shape"
    value {
      b: true
    }
  }
}
node {
  name: "save/Assign_310"
  op: "Assign"
  input: "SecondStageFeatureExtractor/InceptionV2/Mixed_5b/Branch_2/Conv2d_0b_3x3/weights"
  input: "save/RestoreV2:310"
  attr {
    key: "T"
    value {
      type: DT_FLOAT
    }
  }
  attr {
    key: "_class"
    value {
      list {
        s: "loc:@SecondStageFeatureExtractor/InceptionV2/Mixed_5b/Branch_2/Conv2d_0b_3x3/weights"
      }
    }
  }
  attr {
    key: "use_locking"
    value {
      b: true
    }
  }
  attr {
    key: "validate_shape"
    value {
      b: true
    }
  }
}
node {
  name: "save/Assign_311"
  op: "Assign"
  input: "SecondStageFeatureExtractor/InceptionV2/Mixed_5b/Branch_2/Conv2d_0c_3x3/BatchNorm/beta"
  input: "save/RestoreV2:311"
  attr {
    key: "T"
    value {
      type: DT_FLOAT
    }
  }
  attr {
    key: "_class"
    value {
      list {
        s: "loc:@SecondStageFeatureExtractor/InceptionV2/Mixed_5b/Branch_2/Conv2d_0c_3x3/BatchNorm/beta"
      }
    }
  }
  attr {
    key: "use_locking"
    value {
      b: true
    }
  }
  attr {
    key: "validate_shape"
    value {
      b: true
    }
  }
}
node {
  name: "save/Assign_312"
  op: "Assign"
  input: "SecondStageFeatureExtractor/InceptionV2/Mixed_5b/Branch_2/Conv2d_0c_3x3/BatchNorm/gamma"
  input: "save/RestoreV2:312"
  attr {
    key: "T"
    value {
      type: DT_FLOAT
    }
  }
  attr {
    key: "_class"
    value {
      list {
        s: "loc:@SecondStageFeatureExtractor/InceptionV2/Mixed_5b/Branch_2/Conv2d_0c_3x3/BatchNorm/gamma"
      }
    }
  }
  attr {
    key: "use_locking"
    value {
      b: true
    }
  }
  attr {
    key: "validate_shape"
    value {
      b: true
    }
  }
}
node {
  name: "save/Assign_313"
  op: "Assign"
  input: "SecondStageFeatureExtractor/InceptionV2/Mixed_5b/Branch_2/Conv2d_0c_3x3/BatchNorm/moving_mean"
  input: "save/RestoreV2:313"
  attr {
    key: "T"
    value {
      type: DT_FLOAT
    }
  }
  attr {
    key: "_class"
    value {
      list {
        s: "loc:@SecondStageFeatureExtractor/InceptionV2/Mixed_5b/Branch_2/Conv2d_0c_3x3/BatchNorm/moving_mean"
      }
    }
  }
  attr {
    key: "use_locking"
    value {
      b: true
    }
  }
  attr {
    key: "validate_shape"
    value {
      b: true
    }
  }
}
node {
  name: "save/Assign_314"
  op: "Assign"
  input: "SecondStageFeatureExtractor/InceptionV2/Mixed_5b/Branch_2/Conv2d_0c_3x3/BatchNorm/moving_variance"
  input: "save/RestoreV2:314"
  attr {
    key: "T"
    value {
      type: DT_FLOAT
    }
  }
  attr {
    key: "_class"
    value {
      list {
        s: "loc:@SecondStageFeatureExtractor/InceptionV2/Mixed_5b/Branch_2/Conv2d_0c_3x3/BatchNorm/moving_variance"
      }
    }
  }
  attr {
    key: "use_locking"
    value {
      b: true
    }
  }
  attr {
    key: "validate_shape"
    value {
      b: true
    }
  }
}
node {
  name: "save/Assign_315"
  op: "Assign"
  input: "SecondStageFeatureExtractor/InceptionV2/Mixed_5b/Branch_2/Conv2d_0c_3x3/weights"
  input: "save/RestoreV2:315"
  attr {
    key: "T"
    value {
      type: DT_FLOAT
    }
  }
  attr {
    key: "_class"
    value {
      list {
        s: "loc:@SecondStageFeatureExtractor/InceptionV2/Mixed_5b/Branch_2/Conv2d_0c_3x3/weights"
      }
    }
  }
  attr {
    key: "use_locking"
    value {
      b: true
    }
  }
  attr {
    key: "validate_shape"
    value {
      b: true
    }
  }
}
node {
  name: "save/Assign_316"
  op: "Assign"
  input: "SecondStageFeatureExtractor/InceptionV2/Mixed_5b/Branch_3/Conv2d_0b_1x1/BatchNorm/beta"
  input: "save/RestoreV2:316"
  attr {
    key: "T"
    value {
      type: DT_FLOAT
    }
  }
  attr {
    key: "_class"
    value {
      list {
        s: "loc:@SecondStageFeatureExtractor/InceptionV2/Mixed_5b/Branch_3/Conv2d_0b_1x1/BatchNorm/beta"
      }
    }
  }
  attr {
    key: "use_locking"
    value {
      b: true
    }
  }
  attr {
    key: "validate_shape"
    value {
      b: true
    }
  }
}
node {
  name: "save/Assign_317"
  op: "Assign"
  input: "SecondStageFeatureExtractor/InceptionV2/Mixed_5b/Branch_3/Conv2d_0b_1x1/BatchNorm/gamma"
  input: "save/RestoreV2:317"
  attr {
    key: "T"
    value {
      type: DT_FLOAT
    }
  }
  attr {
    key: "_class"
    value {
      list {
        s: "loc:@SecondStageFeatureExtractor/InceptionV2/Mixed_5b/Branch_3/Conv2d_0b_1x1/BatchNorm/gamma"
      }
    }
  }
  attr {
    key: "use_locking"
    value {
      b: true
    }
  }
  attr {
    key: "validate_shape"
    value {
      b: true
    }
  }
}
node {
  name: "save/Assign_318"
  op: "Assign"
  input: "SecondStageFeatureExtractor/InceptionV2/Mixed_5b/Branch_3/Conv2d_0b_1x1/BatchNorm/moving_mean"
  input: "save/RestoreV2:318"
  attr {
    key: "T"
    value {
      type: DT_FLOAT
    }
  }
  attr {
    key: "_class"
    value {
      list {
        s: "loc:@SecondStageFeatureExtractor/InceptionV2/Mixed_5b/Branch_3/Conv2d_0b_1x1/BatchNorm/moving_mean"
      }
    }
  }
  attr {
    key: "use_locking"
    value {
      b: true
    }
  }
  attr {
    key: "validate_shape"
    value {
      b: true
    }
  }
}
node {
  name: "save/Assign_319"
  op: "Assign"
  input: "SecondStageFeatureExtractor/InceptionV2/Mixed_5b/Branch_3/Conv2d_0b_1x1/BatchNorm/moving_variance"
  input: "save/RestoreV2:319"
  attr {
    key: "T"
    value {
      type: DT_FLOAT
    }
  }
  attr {
    key: "_class"
    value {
      list {
        s: "loc:@SecondStageFeatureExtractor/InceptionV2/Mixed_5b/Branch_3/Conv2d_0b_1x1/BatchNorm/moving_variance"
      }
    }
  }
  attr {
    key: "use_locking"
    value {
      b: true
    }
  }
  attr {
    key: "validate_shape"
    value {
      b: true
    }
  }
}
node {
  name: "save/Assign_320"
  op: "Assign"
  input: "SecondStageFeatureExtractor/InceptionV2/Mixed_5b/Branch_3/Conv2d_0b_1x1/weights"
  input: "save/RestoreV2:320"
  attr {
    key: "T"
    value {
      type: DT_FLOAT
    }
  }
  attr {
    key: "_class"
    value {
      list {
        s: "loc:@SecondStageFeatureExtractor/InceptionV2/Mixed_5b/Branch_3/Conv2d_0b_1x1/weights"
      }
    }
  }
  attr {
    key: "use_locking"
    value {
      b: true
    }
  }
  attr {
    key: "validate_shape"
    value {
      b: true
    }
  }
}
node {
  name: "save/Assign_321"
  op: "Assign"
  input: "SecondStageFeatureExtractor/InceptionV2/Mixed_5c/Branch_0/Conv2d_0a_1x1/BatchNorm/beta"
  input: "save/RestoreV2:321"
  attr {
    key: "T"
    value {
      type: DT_FLOAT
    }
  }
  attr {
    key: "_class"
    value {
      list {
        s: "loc:@SecondStageFeatureExtractor/InceptionV2/Mixed_5c/Branch_0/Conv2d_0a_1x1/BatchNorm/beta"
      }
    }
  }
  attr {
    key: "use_locking"
    value {
      b: true
    }
  }
  attr {
    key: "validate_shape"
    value {
      b: true
    }
  }
}
node {
  name: "save/Assign_322"
  op: "Assign"
  input: "SecondStageFeatureExtractor/InceptionV2/Mixed_5c/Branch_0/Conv2d_0a_1x1/BatchNorm/gamma"
  input: "save/RestoreV2:322"
  attr {
    key: "T"
    value {
      type: DT_FLOAT
    }
  }
  attr {
    key: "_class"
    value {
      list {
        s: "loc:@SecondStageFeatureExtractor/InceptionV2/Mixed_5c/Branch_0/Conv2d_0a_1x1/BatchNorm/gamma"
      }
    }
  }
  attr {
    key: "use_locking"
    value {
      b: true
    }
  }
  attr {
    key: "validate_shape"
    value {
      b: true
    }
  }
}
node {
  name: "save/Assign_323"
  op: "Assign"
  input: "SecondStageFeatureExtractor/InceptionV2/Mixed_5c/Branch_0/Conv2d_0a_1x1/BatchNorm/moving_mean"
  input: "save/RestoreV2:323"
  attr {
    key: "T"
    value {
      type: DT_FLOAT
    }
  }
  attr {
    key: "_class"
    value {
      list {
        s: "loc:@SecondStageFeatureExtractor/InceptionV2/Mixed_5c/Branch_0/Conv2d_0a_1x1/BatchNorm/moving_mean"
      }
    }
  }
  attr {
    key: "use_locking"
    value {
      b: true
    }
  }
  attr {
    key: "validate_shape"
    value {
      b: true
    }
  }
}
node {
  name: "save/Assign_324"
  op: "Assign"
  input: "SecondStageFeatureExtractor/InceptionV2/Mixed_5c/Branch_0/Conv2d_0a_1x1/BatchNorm/moving_variance"
  input: "save/RestoreV2:324"
  attr {
    key: "T"
    value {
      type: DT_FLOAT
    }
  }
  attr {
    key: "_class"
    value {
      list {
        s: "loc:@SecondStageFeatureExtractor/InceptionV2/Mixed_5c/Branch_0/Conv2d_0a_1x1/BatchNorm/moving_variance"
      }
    }
  }
  attr {
    key: "use_locking"
    value {
      b: true
    }
  }
  attr {
    key: "validate_shape"
    value {
      b: true
    }
  }
}
node {
  name: "save/Assign_325"
  op: "Assign"
  input: "SecondStageFeatureExtractor/InceptionV2/Mixed_5c/Branch_0/Conv2d_0a_1x1/weights"
  input: "save/RestoreV2:325"
  attr {
    key: "T"
    value {
      type: DT_FLOAT
    }
  }
  attr {
    key: "_class"
    value {
      list {
        s: "loc:@SecondStageFeatureExtractor/InceptionV2/Mixed_5c/Branch_0/Conv2d_0a_1x1/weights"
      }
    }
  }
  attr {
    key: "use_locking"
    value {
      b: true
    }
  }
  attr {
    key: "validate_shape"
    value {
      b: true
    }
  }
}
node {
  name: "save/Assign_326"
  op: "Assign"
  input: "SecondStageFeatureExtractor/InceptionV2/Mixed_5c/Branch_1/Conv2d_0a_1x1/BatchNorm/beta"
  input: "save/RestoreV2:326"
  attr {
    key: "T"
    value {
      type: DT_FLOAT
    }
  }
  attr {
    key: "_class"
    value {
      list {
        s: "loc:@SecondStageFeatureExtractor/InceptionV2/Mixed_5c/Branch_1/Conv2d_0a_1x1/BatchNorm/beta"
      }
    }
  }
  attr {
    key: "use_locking"
    value {
      b: true
    }
  }
  attr {
    key: "validate_shape"
    value {
      b: true
    }
  }
}
node {
  name: "save/Assign_327"
  op: "Assign"
  input: "SecondStageFeatureExtractor/InceptionV2/Mixed_5c/Branch_1/Conv2d_0a_1x1/BatchNorm/gamma"
  input: "save/RestoreV2:327"
  attr {
    key: "T"
    value {
      type: DT_FLOAT
    }
  }
  attr {
    key: "_class"
    value {
      list {
        s: "loc:@SecondStageFeatureExtractor/InceptionV2/Mixed_5c/Branch_1/Conv2d_0a_1x1/BatchNorm/gamma"
      }
    }
  }
  attr {
    key: "use_locking"
    value {
      b: true
    }
  }
  attr {
    key: "validate_shape"
    value {
      b: true
    }
  }
}
node {
  name: "save/Assign_328"
  op: "Assign"
  input: "SecondStageFeatureExtractor/InceptionV2/Mixed_5c/Branch_1/Conv2d_0a_1x1/BatchNorm/moving_mean"
  input: "save/RestoreV2:328"
  attr {
    key: "T"
    value {
      type: DT_FLOAT
    }
  }
  attr {
    key: "_class"
    value {
      list {
        s: "loc:@SecondStageFeatureExtractor/InceptionV2/Mixed_5c/Branch_1/Conv2d_0a_1x1/BatchNorm/moving_mean"
      }
    }
  }
  attr {
    key: "use_locking"
    value {
      b: true
    }
  }
  attr {
    key: "validate_shape"
    value {
      b: true
    }
  }
}
node {
  name: "save/Assign_329"
  op: "Assign"
  input: "SecondStageFeatureExtractor/InceptionV2/Mixed_5c/Branch_1/Conv2d_0a_1x1/BatchNorm/moving_variance"
  input: "save/RestoreV2:329"
  attr {
    key: "T"
    value {
      type: DT_FLOAT
    }
  }
  attr {
    key: "_class"
    value {
      list {
        s: "loc:@SecondStageFeatureExtractor/InceptionV2/Mixed_5c/Branch_1/Conv2d_0a_1x1/BatchNorm/moving_variance"
      }
    }
  }
  attr {
    key: "use_locking"
    value {
      b: true
    }
  }
  attr {
    key: "validate_shape"
    value {
      b: true
    }
  }
}
node {
  name: "save/Assign_330"
  op: "Assign"
  input: "SecondStageFeatureExtractor/InceptionV2/Mixed_5c/Branch_1/Conv2d_0a_1x1/weights"
  input: "save/RestoreV2:330"
  attr {
    key: "T"
    value {
      type: DT_FLOAT
    }
  }
  attr {
    key: "_class"
    value {
      list {
        s: "loc:@SecondStageFeatureExtractor/InceptionV2/Mixed_5c/Branch_1/Conv2d_0a_1x1/weights"
      }
    }
  }
  attr {
    key: "use_locking"
    value {
      b: true
    }
  }
  attr {
    key: "validate_shape"
    value {
      b: true
    }
  }
}
node {
  name: "save/Assign_331"
  op: "Assign"
  input: "SecondStageFeatureExtractor/InceptionV2/Mixed_5c/Branch_1/Conv2d_0b_3x3/BatchNorm/beta"
  input: "save/RestoreV2:331"
  attr {
    key: "T"
    value {
      type: DT_FLOAT
    }
  }
  attr {
    key: "_class"
    value {
      list {
        s: "loc:@SecondStageFeatureExtractor/InceptionV2/Mixed_5c/Branch_1/Conv2d_0b_3x3/BatchNorm/beta"
      }
    }
  }
  attr {
    key: "use_locking"
    value {
      b: true
    }
  }
  attr {
    key: "validate_shape"
    value {
      b: true
    }
  }
}
node {
  name: "save/Assign_332"
  op: "Assign"
  input: "SecondStageFeatureExtractor/InceptionV2/Mixed_5c/Branch_1/Conv2d_0b_3x3/BatchNorm/gamma"
  input: "save/RestoreV2:332"
  attr {
    key: "T"
    value {
      type: DT_FLOAT
    }
  }
  attr {
    key: "_class"
    value {
      list {
        s: "loc:@SecondStageFeatureExtractor/InceptionV2/Mixed_5c/Branch_1/Conv2d_0b_3x3/BatchNorm/gamma"
      }
    }
  }
  attr {
    key: "use_locking"
    value {
      b: true
    }
  }
  attr {
    key: "validate_shape"
    value {
      b: true
    }
  }
}
node {
  name: "save/Assign_333"
  op: "Assign"
  input: "SecondStageFeatureExtractor/InceptionV2/Mixed_5c/Branch_1/Conv2d_0b_3x3/BatchNorm/moving_mean"
  input: "save/RestoreV2:333"
  attr {
    key: "T"
    value {
      type: DT_FLOAT
    }
  }
  attr {
    key: "_class"
    value {
      list {
        s: "loc:@SecondStageFeatureExtractor/InceptionV2/Mixed_5c/Branch_1/Conv2d_0b_3x3/BatchNorm/moving_mean"
      }
    }
  }
  attr {
    key: "use_locking"
    value {
      b: true
    }
  }
  attr {
    key: "validate_shape"
    value {
      b: true
    }
  }
}
node {
  name: "save/Assign_334"
  op: "Assign"
  input: "SecondStageFeatureExtractor/InceptionV2/Mixed_5c/Branch_1/Conv2d_0b_3x3/BatchNorm/moving_variance"
  input: "save/RestoreV2:334"
  attr {
    key: "T"
    value {
      type: DT_FLOAT
    }
  }
  attr {
    key: "_class"
    value {
      list {
        s: "loc:@SecondStageFeatureExtractor/InceptionV2/Mixed_5c/Branch_1/Conv2d_0b_3x3/BatchNorm/moving_variance"
      }
    }
  }
  attr {
    key: "use_locking"
    value {
      b: true
    }
  }
  attr {
    key: "validate_shape"
    value {
      b: true
    }
  }
}
node {
  name: "save/Assign_335"
  op: "Assign"
  input: "SecondStageFeatureExtractor/InceptionV2/Mixed_5c/Branch_1/Conv2d_0b_3x3/weights"
  input: "save/RestoreV2:335"
  attr {
    key: "T"
    value {
      type: DT_FLOAT
    }
  }
  attr {
    key: "_class"
    value {
      list {
        s: "loc:@SecondStageFeatureExtractor/InceptionV2/Mixed_5c/Branch_1/Conv2d_0b_3x3/weights"
      }
    }
  }
  attr {
    key: "use_locking"
    value {
      b: true
    }
  }
  attr {
    key: "validate_shape"
    value {
      b: true
    }
  }
}
node {
  name: "save/Assign_336"
  op: "Assign"
  input: "SecondStageFeatureExtractor/InceptionV2/Mixed_5c/Branch_2/Conv2d_0a_1x1/BatchNorm/beta"
  input: "save/RestoreV2:336"
  attr {
    key: "T"
    value {
      type: DT_FLOAT
    }
  }
  attr {
    key: "_class"
    value {
      list {
        s: "loc:@SecondStageFeatureExtractor/InceptionV2/Mixed_5c/Branch_2/Conv2d_0a_1x1/BatchNorm/beta"
      }
    }
  }
  attr {
    key: "use_locking"
    value {
      b: true
    }
  }
  attr {
    key: "validate_shape"
    value {
      b: true
    }
  }
}
node {
  name: "save/Assign_337"
  op: "Assign"
  input: "SecondStageFeatureExtractor/InceptionV2/Mixed_5c/Branch_2/Conv2d_0a_1x1/BatchNorm/gamma"
  input: "save/RestoreV2:337"
  attr {
    key: "T"
    value {
      type: DT_FLOAT
    }
  }
  attr {
    key: "_class"
    value {
      list {
        s: "loc:@SecondStageFeatureExtractor/InceptionV2/Mixed_5c/Branch_2/Conv2d_0a_1x1/BatchNorm/gamma"
      }
    }
  }
  attr {
    key: "use_locking"
    value {
      b: true
    }
  }
  attr {
    key: "validate_shape"
    value {
      b: true
    }
  }
}
node {
  name: "save/Assign_338"
  op: "Assign"
  input: "SecondStageFeatureExtractor/InceptionV2/Mixed_5c/Branch_2/Conv2d_0a_1x1/BatchNorm/moving_mean"
  input: "save/RestoreV2:338"
  attr {
    key: "T"
    value {
      type: DT_FLOAT
    }
  }
  attr {
    key: "_class"
    value {
      list {
        s: "loc:@SecondStageFeatureExtractor/InceptionV2/Mixed_5c/Branch_2/Conv2d_0a_1x1/BatchNorm/moving_mean"
      }
    }
  }
  attr {
    key: "use_locking"
    value {
      b: true
    }
  }
  attr {
    key: "validate_shape"
    value {
      b: true
    }
  }
}
node {
  name: "save/Assign_339"
  op: "Assign"
  input: "SecondStageFeatureExtractor/InceptionV2/Mixed_5c/Branch_2/Conv2d_0a_1x1/BatchNorm/moving_variance"
  input: "save/RestoreV2:339"
  attr {
    key: "T"
    value {
      type: DT_FLOAT
    }
  }
  attr {
    key: "_class"
    value {
      list {
        s: "loc:@SecondStageFeatureExtractor/InceptionV2/Mixed_5c/Branch_2/Conv2d_0a_1x1/BatchNorm/moving_variance"
      }
    }
  }
  attr {
    key: "use_locking"
    value {
      b: true
    }
  }
  attr {
    key: "validate_shape"
    value {
      b: true
    }
  }
}
node {
  name: "save/Assign_340"
  op: "Assign"
  input: "SecondStageFeatureExtractor/InceptionV2/Mixed_5c/Branch_2/Conv2d_0a_1x1/weights"
  input: "save/RestoreV2:340"
  attr {
    key: "T"
    value {
      type: DT_FLOAT
    }
  }
  attr {
    key: "_class"
    value {
      list {
        s: "loc:@SecondStageFeatureExtractor/InceptionV2/Mixed_5c/Branch_2/Conv2d_0a_1x1/weights"
      }
    }
  }
  attr {
    key: "use_locking"
    value {
      b: true
    }
  }
  attr {
    key: "validate_shape"
    value {
      b: true
    }
  }
}
node {
  name: "save/Assign_341"
  op: "Assign"
  input: "SecondStageFeatureExtractor/InceptionV2/Mixed_5c/Branch_2/Conv2d_0b_3x3/BatchNorm/beta"
  input: "save/RestoreV2:341"
  attr {
    key: "T"
    value {
      type: DT_FLOAT
    }
  }
  attr {
    key: "_class"
    value {
      list {
        s: "loc:@SecondStageFeatureExtractor/InceptionV2/Mixed_5c/Branch_2/Conv2d_0b_3x3/BatchNorm/beta"
      }
    }
  }
  attr {
    key: "use_locking"
    value {
      b: true
    }
  }
  attr {
    key: "validate_shape"
    value {
      b: true
    }
  }
}
node {
  name: "save/Assign_342"
  op: "Assign"
  input: "SecondStageFeatureExtractor/InceptionV2/Mixed_5c/Branch_2/Conv2d_0b_3x3/BatchNorm/gamma"
  input: "save/RestoreV2:342"
  attr {
    key: "T"
    value {
      type: DT_FLOAT
    }
  }
  attr {
    key: "_class"
    value {
      list {
        s: "loc:@SecondStageFeatureExtractor/InceptionV2/Mixed_5c/Branch_2/Conv2d_0b_3x3/BatchNorm/gamma"
      }
    }
  }
  attr {
    key: "use_locking"
    value {
      b: true
    }
  }
  attr {
    key: "validate_shape"
    value {
      b: true
    }
  }
}
node {
  name: "save/Assign_343"
  op: "Assign"
  input: "SecondStageFeatureExtractor/InceptionV2/Mixed_5c/Branch_2/Conv2d_0b_3x3/BatchNorm/moving_mean"
  input: "save/RestoreV2:343"
  attr {
    key: "T"
    value {
      type: DT_FLOAT
    }
  }
  attr {
    key: "_class"
    value {
      list {
        s: "loc:@SecondStageFeatureExtractor/InceptionV2/Mixed_5c/Branch_2/Conv2d_0b_3x3/BatchNorm/moving_mean"
      }
    }
  }
  attr {
    key: "use_locking"
    value {
      b: true
    }
  }
  attr {
    key: "validate_shape"
    value {
      b: true
    }
  }
}
node {
  name: "save/Assign_344"
  op: "Assign"
  input: "SecondStageFeatureExtractor/InceptionV2/Mixed_5c/Branch_2/Conv2d_0b_3x3/BatchNorm/moving_variance"
  input: "save/RestoreV2:344"
  attr {
    key: "T"
    value {
      type: DT_FLOAT
    }
  }
  attr {
    key: "_class"
    value {
      list {
        s: "loc:@SecondStageFeatureExtractor/InceptionV2/Mixed_5c/Branch_2/Conv2d_0b_3x3/BatchNorm/moving_variance"
      }
    }
  }
  attr {
    key: "use_locking"
    value {
      b: true
    }
  }
  attr {
    key: "validate_shape"
    value {
      b: true
    }
  }
}
node {
  name: "save/Assign_345"
  op: "Assign"
  input: "SecondStageFeatureExtractor/InceptionV2/Mixed_5c/Branch_2/Conv2d_0b_3x3/weights"
  input: "save/RestoreV2:345"
  attr {
    key: "T"
    value {
      type: DT_FLOAT
    }
  }
  attr {
    key: "_class"
    value {
      list {
        s: "loc:@SecondStageFeatureExtractor/InceptionV2/Mixed_5c/Branch_2/Conv2d_0b_3x3/weights"
      }
    }
  }
  attr {
    key: "use_locking"
    value {
      b: true
    }
  }
  attr {
    key: "validate_shape"
    value {
      b: true
    }
  }
}
node {
  name: "save/Assign_346"
  op: "Assign"
  input: "SecondStageFeatureExtractor/InceptionV2/Mixed_5c/Branch_2/Conv2d_0c_3x3/BatchNorm/beta"
  input: "save/RestoreV2:346"
  attr {
    key: "T"
    value {
      type: DT_FLOAT
    }
  }
  attr {
    key: "_class"
    value {
      list {
        s: "loc:@SecondStageFeatureExtractor/InceptionV2/Mixed_5c/Branch_2/Conv2d_0c_3x3/BatchNorm/beta"
      }
    }
  }
  attr {
    key: "use_locking"
    value {
      b: true
    }
  }
  attr {
    key: "validate_shape"
    value {
      b: true
    }
  }
}
node {
  name: "save/Assign_347"
  op: "Assign"
  input: "SecondStageFeatureExtractor/InceptionV2/Mixed_5c/Branch_2/Conv2d_0c_3x3/BatchNorm/gamma"
  input: "save/RestoreV2:347"
  attr {
    key: "T"
    value {
      type: DT_FLOAT
    }
  }
  attr {
    key: "_class"
    value {
      list {
        s: "loc:@SecondStageFeatureExtractor/InceptionV2/Mixed_5c/Branch_2/Conv2d_0c_3x3/BatchNorm/gamma"
      }
    }
  }
  attr {
    key: "use_locking"
    value {
      b: true
    }
  }
  attr {
    key: "validate_shape"
    value {
      b: true
    }
  }
}
node {
  name: "save/Assign_348"
  op: "Assign"
  input: "SecondStageFeatureExtractor/InceptionV2/Mixed_5c/Branch_2/Conv2d_0c_3x3/BatchNorm/moving_mean"
  input: "save/RestoreV2:348"
  attr {
    key: "T"
    value {
      type: DT_FLOAT
    }
  }
  attr {
    key: "_class"
    value {
      list {
        s: "loc:@SecondStageFeatureExtractor/InceptionV2/Mixed_5c/Branch_2/Conv2d_0c_3x3/BatchNorm/moving_mean"
      }
    }
  }
  attr {
    key: "use_locking"
    value {
      b: true
    }
  }
  attr {
    key: "validate_shape"
    value {
      b: true
    }
  }
}
node {
  name: "save/Assign_349"
  op: "Assign"
  input: "SecondStageFeatureExtractor/InceptionV2/Mixed_5c/Branch_2/Conv2d_0c_3x3/BatchNorm/moving_variance"
  input: "save/RestoreV2:349"
  attr {
    key: "T"
    value {
      type: DT_FLOAT
    }
  }
  attr {
    key: "_class"
    value {
      list {
        s: "loc:@SecondStageFeatureExtractor/InceptionV2/Mixed_5c/Branch_2/Conv2d_0c_3x3/BatchNorm/moving_variance"
      }
    }
  }
  attr {
    key: "use_locking"
    value {
      b: true
    }
  }
  attr {
    key: "validate_shape"
    value {
      b: true
    }
  }
}
node {
  name: "save/Assign_350"
  op: "Assign"
  input: "SecondStageFeatureExtractor/InceptionV2/Mixed_5c/Branch_2/Conv2d_0c_3x3/weights"
  input: "save/RestoreV2:350"
  attr {
    key: "T"
    value {
      type: DT_FLOAT
    }
  }
  attr {
    key: "_class"
    value {
      list {
        s: "loc:@SecondStageFeatureExtractor/InceptionV2/Mixed_5c/Branch_2/Conv2d_0c_3x3/weights"
      }
    }
  }
  attr {
    key: "use_locking"
    value {
      b: true
    }
  }
  attr {
    key: "validate_shape"
    value {
      b: true
    }
  }
}
node {
  name: "save/Assign_351"
  op: "Assign"
  input: "SecondStageFeatureExtractor/InceptionV2/Mixed_5c/Branch_3/Conv2d_0b_1x1/BatchNorm/beta"
  input: "save/RestoreV2:351"
  attr {
    key: "T"
    value {
      type: DT_FLOAT
    }
  }
  attr {
    key: "_class"
    value {
      list {
        s: "loc:@SecondStageFeatureExtractor/InceptionV2/Mixed_5c/Branch_3/Conv2d_0b_1x1/BatchNorm/beta"
      }
    }
  }
  attr {
    key: "use_locking"
    value {
      b: true
    }
  }
  attr {
    key: "validate_shape"
    value {
      b: true
    }
  }
}
node {
  name: "save/Assign_352"
  op: "Assign"
  input: "SecondStageFeatureExtractor/InceptionV2/Mixed_5c/Branch_3/Conv2d_0b_1x1/BatchNorm/gamma"
  input: "save/RestoreV2:352"
  attr {
    key: "T"
    value {
      type: DT_FLOAT
    }
  }
  attr {
    key: "_class"
    value {
      list {
        s: "loc:@SecondStageFeatureExtractor/InceptionV2/Mixed_5c/Branch_3/Conv2d_0b_1x1/BatchNorm/gamma"
      }
    }
  }
  attr {
    key: "use_locking"
    value {
      b: true
    }
  }
  attr {
    key: "validate_shape"
    value {
      b: true
    }
  }
}
node {
  name: "save/Assign_353"
  op: "Assign"
  input: "SecondStageFeatureExtractor/InceptionV2/Mixed_5c/Branch_3/Conv2d_0b_1x1/BatchNorm/moving_mean"
  input: "save/RestoreV2:353"
  attr {
    key: "T"
    value {
      type: DT_FLOAT
    }
  }
  attr {
    key: "_class"
    value {
      list {
        s: "loc:@SecondStageFeatureExtractor/InceptionV2/Mixed_5c/Branch_3/Conv2d_0b_1x1/BatchNorm/moving_mean"
      }
    }
  }
  attr {
    key: "use_locking"
    value {
      b: true
    }
  }
  attr {
    key: "validate_shape"
    value {
      b: true
    }
  }
}
node {
  name: "save/Assign_354"
  op: "Assign"
  input: "SecondStageFeatureExtractor/InceptionV2/Mixed_5c/Branch_3/Conv2d_0b_1x1/BatchNorm/moving_variance"
  input: "save/RestoreV2:354"
  attr {
    key: "T"
    value {
      type: DT_FLOAT
    }
  }
  attr {
    key: "_class"
    value {
      list {
        s: "loc:@SecondStageFeatureExtractor/InceptionV2/Mixed_5c/Branch_3/Conv2d_0b_1x1/BatchNorm/moving_variance"
      }
    }
  }
  attr {
    key: "use_locking"
    value {
      b: true
    }
  }
  attr {
    key: "validate_shape"
    value {
      b: true
    }
  }
}
node {
  name: "save/Assign_355"
  op: "Assign"
  input: "SecondStageFeatureExtractor/InceptionV2/Mixed_5c/Branch_3/Conv2d_0b_1x1/weights"
  input: "save/RestoreV2:355"
  attr {
    key: "T"
    value {
      type: DT_FLOAT
    }
  }
  attr {
    key: "_class"
    value {
      list {
        s: "loc:@SecondStageFeatureExtractor/InceptionV2/Mixed_5c/Branch_3/Conv2d_0b_1x1/weights"
      }
    }
  }
  attr {
    key: "use_locking"
    value {
      b: true
    }
  }
  attr {
    key: "validate_shape"
    value {
      b: true
    }
  }
}
node {
  name: "save/Assign_356"
  op: "Assign"
  input: "global_step"
  input: "save/RestoreV2:356"
  attr {
    key: "T"
    value {
      type: DT_INT64
    }
  }
  attr {
    key: "_class"
    value {
      list {
        s: "loc:@global_step"
      }
    }
  }
  attr {
    key: "use_locking"
    value {
      b: true
    }
  }
  attr {
    key: "validate_shape"
    value {
      b: true
    }
  }
}
node {
  name: "save/restore_all"
  op: "NoOp"
  input: "^save/Assign"
  input: "^save/Assign_1"
  input: "^save/Assign_10"
  input: "^save/Assign_100"
  input: "^save/Assign_101"
  input: "^save/Assign_102"
  input: "^save/Assign_103"
  input: "^save/Assign_104"
  input: "^save/Assign_105"
  input: "^save/Assign_106"
  input: "^save/Assign_107"
  input: "^save/Assign_108"
  input: "^save/Assign_109"
  input: "^save/Assign_11"
  input: "^save/Assign_110"
  input: "^save/Assign_111"
  input: "^save/Assign_112"
  input: "^save/Assign_113"
  input: "^save/Assign_114"
  input: "^save/Assign_115"
  input: "^save/Assign_116"
  input: "^save/Assign_117"
  input: "^save/Assign_118"
  input: "^save/Assign_119"
  input: "^save/Assign_12"
  input: "^save/Assign_120"
  input: "^save/Assign_121"
  input: "^save/Assign_122"
  input: "^save/Assign_123"
  input: "^save/Assign_124"
  input: "^save/Assign_125"
  input: "^save/Assign_126"
  input: "^save/Assign_127"
  input: "^save/Assign_128"
  input: "^save/Assign_129"
  input: "^save/Assign_13"
  input: "^save/Assign_130"
  input: "^save/Assign_131"
  input: "^save/Assign_132"
  input: "^save/Assign_133"
  input: "^save/Assign_134"
  input: "^save/Assign_135"
  input: "^save/Assign_136"
  input: "^save/Assign_137"
  input: "^save/Assign_138"
  input: "^save/Assign_139"
  input: "^save/Assign_14"
  input: "^save/Assign_140"
  input: "^save/Assign_141"
  input: "^save/Assign_142"
  input: "^save/Assign_143"
  input: "^save/Assign_144"
  input: "^save/Assign_145"
  input: "^save/Assign_146"
  input: "^save/Assign_147"
  input: "^save/Assign_148"
  input: "^save/Assign_149"
  input: "^save/Assign_15"
  input: "^save/Assign_150"
  input: "^save/Assign_151"
  input: "^save/Assign_152"
  input: "^save/Assign_153"
  input: "^save/Assign_154"
  input: "^save/Assign_155"
  input: "^save/Assign_156"
  input: "^save/Assign_157"
  input: "^save/Assign_158"
  input: "^save/Assign_159"
  input: "^save/Assign_16"
  input: "^save/Assign_160"
  input: "^save/Assign_161"
  input: "^save/Assign_162"
  input: "^save/Assign_163"
  input: "^save/Assign_164"
  input: "^save/Assign_165"
  input: "^save/Assign_166"
  input: "^save/Assign_167"
  input: "^save/Assign_168"
  input: "^save/Assign_169"
  input: "^save/Assign_17"
  input: "^save/Assign_170"
  input: "^save/Assign_171"
  input: "^save/Assign_172"
  input: "^save/Assign_173"
  input: "^save/Assign_174"
  input: "^save/Assign_175"
  input: "^save/Assign_176"
  input: "^save/Assign_177"
  input: "^save/Assign_178"
  input: "^save/Assign_179"
  input: "^save/Assign_18"
  input: "^save/Assign_180"
  input: "^save/Assign_181"
  input: "^save/Assign_182"
  input: "^save/Assign_183"
  input: "^save/Assign_184"
  input: "^save/Assign_185"
  input: "^save/Assign_186"
  input: "^save/Assign_187"
  input: "^save/Assign_188"
  input: "^save/Assign_189"
  input: "^save/Assign_19"
  input: "^save/Assign_190"
  input: "^save/Assign_191"
  input: "^save/Assign_192"
  input: "^save/Assign_193"
  input: "^save/Assign_194"
  input: "^save/Assign_195"
  input: "^save/Assign_196"
  input: "^save/Assign_197"
  input: "^save/Assign_198"
  input: "^save/Assign_199"
  input: "^save/Assign_2"
  input: "^save/Assign_20"
  input: "^save/Assign_200"
  input: "^save/Assign_201"
  input: "^save/Assign_202"
  input: "^save/Assign_203"
  input: "^save/Assign_204"
  input: "^save/Assign_205"
  input: "^save/Assign_206"
  input: "^save/Assign_207"
  input: "^save/Assign_208"
  input: "^save/Assign_209"
  input: "^save/Assign_21"
  input: "^save/Assign_210"
  input: "^save/Assign_211"
  input: "^save/Assign_212"
  input: "^save/Assign_213"
  input: "^save/Assign_214"
  input: "^save/Assign_215"
  input: "^save/Assign_216"
  input: "^save/Assign_217"
  input: "^save/Assign_218"
  input: "^save/Assign_219"
  input: "^save/Assign_22"
  input: "^save/Assign_220"
  input: "^save/Assign_221"
  input: "^save/Assign_222"
  input: "^save/Assign_223"
  input: "^save/Assign_224"
  input: "^save/Assign_225"
  input: "^save/Assign_226"
  input: "^save/Assign_227"
  input: "^save/Assign_228"
  input: "^save/Assign_229"
  input: "^save/Assign_23"
  input: "^save/Assign_230"
  input: "^save/Assign_231"
  input: "^save/Assign_232"
  input: "^save/Assign_233"
  input: "^save/Assign_234"
  input: "^save/Assign_235"
  input: "^save/Assign_236"
  input: "^save/Assign_237"
  input: "^save/Assign_238"
  input: "^save/Assign_239"
  input: "^save/Assign_24"
  input: "^save/Assign_240"
  input: "^save/Assign_241"
  input: "^save/Assign_242"
  input: "^save/Assign_243"
  input: "^save/Assign_244"
  input: "^save/Assign_245"
  input: "^save/Assign_246"
  input: "^save/Assign_247"
  input: "^save/Assign_248"
  input: "^save/Assign_249"
  input: "^save/Assign_25"
  input: "^save/Assign_250"
  input: "^save/Assign_251"
  input: "^save/Assign_252"
  input: "^save/Assign_253"
  input: "^save/Assign_254"
  input: "^save/Assign_255"
  input: "^save/Assign_256"
  input: "^save/Assign_257"
  input: "^save/Assign_258"
  input: "^save/Assign_259"
  input: "^save/Assign_26"
  input: "^save/Assign_260"
  input: "^save/Assign_261"
  input: "^save/Assign_262"
  input: "^save/Assign_263"
  input: "^save/Assign_264"
  input: "^save/Assign_265"
  input: "^save/Assign_266"
  input: "^save/Assign_267"
  input: "^save/Assign_268"
  input: "^save/Assign_269"
  input: "^save/Assign_27"
  input: "^save/Assign_270"
  input: "^save/Assign_271"
  input: "^save/Assign_272"
  input: "^save/Assign_273"
  input: "^save/Assign_274"
  input: "^save/Assign_275"
  input: "^save/Assign_276"
  input: "^save/Assign_277"
  input: "^save/Assign_278"
  input: "^save/Assign_279"
  input: "^save/Assign_28"
  input: "^save/Assign_280"
  input: "^save/Assign_281"
  input: "^save/Assign_282"
  input: "^save/Assign_283"
  input: "^save/Assign_284"
  input: "^save/Assign_285"
  input: "^save/Assign_286"
  input: "^save/Assign_287"
  input: "^save/Assign_288"
  input: "^save/Assign_289"
  input: "^save/Assign_29"
  input: "^save/Assign_290"
  input: "^save/Assign_291"
  input: "^save/Assign_292"
  input: "^save/Assign_293"
  input: "^save/Assign_294"
  input: "^save/Assign_295"
  input: "^save/Assign_296"
  input: "^save/Assign_297"
  input: "^save/Assign_298"
  input: "^save/Assign_299"
  input: "^save/Assign_3"
  input: "^save/Assign_30"
  input: "^save/Assign_300"
  input: "^save/Assign_301"
  input: "^save/Assign_302"
  input: "^save/Assign_303"
  input: "^save/Assign_304"
  input: "^save/Assign_305"
  input: "^save/Assign_306"
  input: "^save/Assign_307"
  input: "^save/Assign_308"
  input: "^save/Assign_309"
  input: "^save/Assign_31"
  input: "^save/Assign_310"
  input: "^save/Assign_311"
  input: "^save/Assign_312"
  input: "^save/Assign_313"
  input: "^save/Assign_314"
  input: "^save/Assign_315"
  input: "^save/Assign_316"
  input: "^save/Assign_317"
  input: "^save/Assign_318"
  input: "^save/Assign_319"
  input: "^save/Assign_32"
  input: "^save/Assign_320"
  input: "^save/Assign_321"
  input: "^save/Assign_322"
  input: "^save/Assign_323"
  input: "^save/Assign_324"
  input: "^save/Assign_325"
  input: "^save/Assign_326"
  input: "^save/Assign_327"
  input: "^save/Assign_328"
  input: "^save/Assign_329"
  input: "^save/Assign_33"
  input: "^save/Assign_330"
  input: "^save/Assign_331"
  input: "^save/Assign_332"
  input: "^save/Assign_333"
  input: "^save/Assign_334"
  input: "^save/Assign_335"
  input: "^save/Assign_336"
  input: "^save/Assign_337"
  input: "^save/Assign_338"
  input: "^save/Assign_339"
  input: "^save/Assign_34"
  input: "^save/Assign_340"
  input: "^save/Assign_341"
  input: "^save/Assign_342"
  input: "^save/Assign_343"
  input: "^save/Assign_344"
  input: "^save/Assign_345"
  input: "^save/Assign_346"
  input: "^save/Assign_347"
  input: "^save/Assign_348"
  input: "^save/Assign_349"
  input: "^save/Assign_35"
  input: "^save/Assign_350"
  input: "^save/Assign_351"
  input: "^save/Assign_352"
  input: "^save/Assign_353"
  input: "^save/Assign_354"
  input: "^save/Assign_355"
  input: "^save/Assign_356"
  input: "^save/Assign_36"
  input: "^save/Assign_37"
  input: "^save/Assign_38"
  input: "^save/Assign_39"
  input: "^save/Assign_4"
  input: "^save/Assign_40"
  input: "^save/Assign_41"
  input: "^save/Assign_42"
  input: "^save/Assign_43"
  input: "^save/Assign_44"
  input: "^save/Assign_45"
  input: "^save/Assign_46"
  input: "^save/Assign_47"
  input: "^save/Assign_48"
  input: "^save/Assign_49"
  input: "^save/Assign_5"
  input: "^save/Assign_50"
  input: "^save/Assign_51"
  input: "^save/Assign_52"
  input: "^save/Assign_53"
  input: "^save/Assign_54"
  input: "^save/Assign_55"
  input: "^save/Assign_56"
  input: "^save/Assign_57"
  input: "^save/Assign_58"
  input: "^save/Assign_59"
  input: "^save/Assign_6"
  input: "^save/Assign_60"
  input: "^save/Assign_61"
  input: "^save/Assign_62"
  input: "^save/Assign_63"
  input: "^save/Assign_64"
  input: "^save/Assign_65"
  input: "^save/Assign_66"
  input: "^save/Assign_67"
  input: "^save/Assign_68"
  input: "^save/Assign_69"
  input: "^save/Assign_7"
  input: "^save/Assign_70"
  input: "^save/Assign_71"
  input: "^save/Assign_72"
  input: "^save/Assign_73"
  input: "^save/Assign_74"
  input: "^save/Assign_75"
  input: "^save/Assign_76"
  input: "^save/Assign_77"
  input: "^save/Assign_78"
  input: "^save/Assign_79"
  input: "^save/Assign_8"
  input: "^save/Assign_80"
  input: "^save/Assign_81"
  input: "^save/Assign_82"
  input: "^save/Assign_83"
  input: "^save/Assign_84"
  input: "^save/Assign_85"
  input: "^save/Assign_86"
  input: "^save/Assign_87"
  input: "^save/Assign_88"
  input: "^save/Assign_89"
  input: "^save/Assign_9"
  input: "^save/Assign_90"
  input: "^save/Assign_91"
  input: "^save/Assign_92"
  input: "^save/Assign_93"
  input: "^save/Assign_94"
  input: "^save/Assign_95"
  input: "^save/Assign_96"
  input: "^save/Assign_97"
  input: "^save/Assign_98"
  input: "^save/Assign_99"
}
versions {
  producer: 27
}
